Assignment 4/mvs/checkpoints/model_000002.ckpt (torch, 790461 bytes, 151 tensors)

feature.layers_conv.0.weight f4 [8, 3, 3, 3]
00000000: 4fd0 ee3d 179b 94bd 40a0 f2bc 5bfa af3d
00000010: c2f7 3fbe 3276 e63d d390 66bd 50c2 ab3d
00000020: 7a5d be3c e822 81bc 01de 6c3d e27b 273c
00000030: 7e8b 563d cd68 c4bd 10ae ebbc e52f 42bd
00000040: cc65 043b 9942 62bc e0e9 393e 0694 8d3d
00000050: 3003 82bd fe90 04be ee31 3ebd e52d b8bd
00000060: 1183 b3bd 57bf 51bc 4654 de3d c561 013e
00000070: 8bf0 23be f491 123e 332d 743d a2d7 3c3e
00000080: f476 033e 80b3 3dbe 6b14 4bbe 9c3c d7bd
00000090: 6711 383e f910 68bc be6a c93d 8762 d9bd
000000a0: 98af 2b3e a20f d2bd 6c14 ca3d 7107 56bd
000000b0: 63f2 18be 9410 093e 2324 77bd 7f3a c43d
000000c0: 6fa7 4fbd b2cc a6bc 2804 3ebe 7400 f5bd
000000d0: 5eda 8b3d 3a67 9dbd c3bd 263e b7a8 023e
000000e0: 5dc3 8dbb eca5 35be 9314 693d fd37 643d
000000f0: c037 3abe f9bf 6c3d f190 dc3d 28d7 1f3e
00000100: 81fe bcbd 68ef a53c 9eeb a7bd 5267 acbc
00000110: 1539 04be a0ae 83be afac 1e3c 1980 8ebd
00000120: 7ac8 be3d 224a 2e3d 5d97 013e 8149 98bc
00000130: a749 2b3d 25ff 013e 288f 93be ef18 993c
00000140: 57c5 15be ee28 ddbd f484 013d c878 d2bc
00000150: 1f41 093e bf19 cabd 4d1f 2bbe 3d90 2d3e
00000160: 11a9 e4bb 83cc 003e 2099 983d 70a1 2cbe
00000170: 3b61 58bc 89a5 803d 4b24 13be 95a7 0cbe
00000180: c07d f83d a84f 873d 6aba 9bbd 58b7 38bd
00000190: f810 1c3e 5b8f aebd c5c9 fd3d 7cc9 803d
000001a0: e9d0 34be 6a06 ddbd c7d0 583e 81bf 293c
000001b0: e71c bd3d 5c8b 7fbc bbe0 b13c c1bf f23d
000001c0: 6c95 033e 4063 14be fe73 71bb 9e4d b93d
000001d0: be7b f33d 45de e03d ae74 2cbe 58c3 2bbe
000001e0: ee11 efbd c5dd e7bb cabd 263e 6a49 eabd
000001f0: 480f a73d b16e febd 3a02 2bbe 372a 30bd
00000200: f8c4 dd3d f4bb 603e ae7c dfbd 6e42 5a3d
00000210: 8e22 5f3e f392 1d3e 8a8b 153e a5fd 233e
00000220: 67bc 113e 786e 9f3d 914f 00be fcdc 1bbe
00000230: dd05 83bd 07aa e4bc bdae e8bd b168 be3d
00000240: 736e 963d 0ee7 e1bc 3629 d63d 1870 3d3d
00000250: 5776 e53d de7e 183e 141f cebd 7a08 2c3e
00000260: 2c0a 6abc 8992 813c cfd7 20be a457 adbd
00000270: 9f63 fbbd 9245 a7bd 2a99 273e 3272 c7bd
00000280: 75d3 24be 1661 b23d 5291 3e3d 3f0c af3d
00000290: 340e 27be 37ca 4b3d 4fa2 8fbd 2088 6fbd
000002a0: cf29 01be 9967 72bd bd5a 28bd 1e71 903d
000002b0: 5ae0 c13a ccbf 82bc 1ce9 563e 105e 4c3e
000002c0: 9097 ff3d 1d1b 113d b189 c8bd 9950 363e
000002d0: d887 a0bd 9b35 93bd 2d0a 82be f7ad 06bd
000002e0: 19d9 04be 4c7a 193e b2e0 13be 561a 03be
000002f0: 226d 863b e1bf 03be 6de2 503d 1a5e d8bd
00000300: 4722 dcbd bf3c 123c 5b8c f83d 5ed6 1dbe
00000310: bcd1 b13d 967f cf3d 0e57 133e e191 18be
00000320: b2d0 903c 612b 1abe 07b2 653e 7665 ffbc
00000330: f630 053e 8bad c43d 45ef 453d 8302 fabd
00000340: 261d 82bd 3c0d 85bc c08c 4fbd 5211 073d
00000350: 940e 51be 1c56 b23d 71ac 383e 4bbd 1b3e
0.116608255 -0.072561435 -0.029617429 0.085926734 -0.18746856 0.11253013 -0.05629046 0.083866715
0.023237932 -0.015763715 0.057828907 0.010222407 0.052379124 -0.09590302 -0.028769523 -0.047408957
0.0020202277 -0.013809823 0.18155622 0.06912999 -0.06348264 -0.12945935 -0.046434335 -0.08993129
-0.08765233 -0.012801967 0.10855918 0.12634952 -0.16009729 0.14313489 0.059613418 0.18441632
0.12838346 -0.18525505 -0.19832008 -0.10509607 0.17975388 -0.014164203 0.098348126 -0.10614496
0.16766202 -0.10256888 0.098671764 -0.05225319 -0.14936213 0.1338523 -0.060337197 0.0958147
-0.050696786 -0.020361278 -0.18556273 -0.11962977 0.068287596 -0.076857045 0.16283326 0.12759672
-0.0043262676 -0.17739075 0.056904387 0.055717457 -0.1818533 0.057800267 0.10769833 0.1560942
-0.0922823 0.02025576 -0.08199237 -0.02104536 -0.129124 -0.25719166 0.009684726 -0.069580264
0.093155816 0.042551167 0.12655397 -0.018589737 0.041818287 0.12694986 -0.28820157 0.018688647
-0.1462606 -0.10798822 0.031620935 -0.025692359 0.13403748 -0.09868192 -0.16711159 0.16949554
-0.006978162 0.12578015 0.07451081 -0.16858459 -0.013206775 0.06281573 -0.14369313 -0.13735802
0.1213336 0.0660699 -0.07603915 -0.045096725 0.15240848 -0.08523437 0.12392 0.0628843
-0.17657818 -0.10792239 0.21173392 0.0103605995 0.09234028 -0.015597191 0.021713605 0.118529804
0.12849969 -0.14490986 -0.0036842818 0.090480074 0.11888836 0.109798945 -0.16841385 -0.16773736
-0.11673342 -0.0070759975 0.16283336 -0.11439784 0.081572115 -0.124234565 -0.16700068 -0.04300901
0.108285844 0.21946698 -0.10912453 0.05328601 0.21790525 0.15388088 0.14604011 0.16014726
0.14232026 0.07784742 -0.12530352 -0.15221018 -0.06397603 -0.027913107 -0.11361454 0.09297312
0.07345285 -0.027575996 0.10457079 0.04624948 0.11204212 0.14892146 -0.100645214 0.16800109
-0.014284652 0.015816944 -0.15707324 -0.08463982 -0.122748606 -0.08167566 0.16367021 -0.09738578
-0.1609629 0.08709924 0.046525307 0.08547258 -0.16314012 0.049753394 -0.0701338 -0.05847943
-0.12613605 -0.05918083 -0.04110216 0.070528254 0.0014791593 -0.015960597 0.20987362 0.19957757
0.1248008 0.035426248 -0.097918876 0.17804183 -0.0783841 -0.07187959 -0.25398389 -0.03288075
-0.12973441 0.14988059 -0.14441183 -0.12803015 0.004102365 -0.12866165 0.050997186 -0.105648234
-0.107487254 0.008925616 0.12136146 -0.15413806 0.08682582 0.10131757 0.14388677 -0.14899398
0.017677639 -0.1505561 0.22431193 -0.03117631 0.13006958 0.09603413 0.04832389 -0.1220751
-0.06353216 -0.016241662 -0.05067134 0.032975502 -0.20415717 0.0870783 0.18034531 0.15208928

feature.layers_conv.0.bias f4 [8]
00000000: 52ae f23d 37a3 eebd dea3 f7bd a969 033e
00000010: 07fb 6bbe 2620 2d3e f66c 28be 50f9 afbd
0.11849655 -0.116522245 -0.12091802 0.12833275 -0.23044978 0.16906795 -0.16447815 -0.085924745

feature.layers_conv.1.weight f4 [8, 8, 3, 3]
00000000: c2e4 0b3d 827a b7bd 754e 16bd c739 8e3d
00000010: 852c 9f3d 9233 c93d ce1a 0abd 781f cfbd
00000020: 0b03 d43d 018f e3ba 4c8e 603b 8cac f33d
00000030: 994d 0abd dabc 143e 693c 353e f773 b1bd
00000040: 5560 a9bd 2e97 1d3d 69d7 b73c 4dba bbbc
00000050: 15e6 89bd 9871 c5bc 4f20 06be e3a5 bdbd
00000060: 7481 eabd e5aa 713d 0d9b 8e3d df85 0bbd
00000070: 06bd c739 f64f 6d3d c8fa 83ba 8c39 a0bd
00000080: 013c 963d 426e 8d3d 0b1f 1b3c 349a b53c
00000090: ab13 eb3d 0f66 c33d 055e babd 3e99 ef3d
000000a0: a5d9 4f3c 502f e9bd dc4d ac3d ed57 afbd
000000b0: 860b bc3d c81b d5bd 0cf9 893c 9322 d53c
000000c0: b2ee febb e416 8f3d ac9a 91bd 07f7 aebd
000000d0: 9071 0fbe 5104 30bd c576 8dbd 6262 0cbc
000000e0: fece 18bd 1d9e e63c 9b5f b63d dbb6 a83c
000000f0: e493 40bd 2595 8ebd fcf1 eabd 7883 063e
00000100: e792 c2bb bcdd 943c 1ed8 b43c 5be5 96bd
00000110: 54f1 433d 249c c63d fd30 b93c 0e32 8cbd
00000120: 9234 9fbc ee7f eb3c 90f4 20bd d8fc 46bd
00000130: 4690 aabb 0e9c eebc 9293 1c3d a31f 0ebd
00000140: c8ad d9bc b2ac 5cbd 573a 06be 24bd a13d
00000150: 7c60 a6bb 8e1e 823d fce2 66bd d366 9dbd
00000160: 9b52 25be 0a9f babd 56de 823d a805 08be
00000170: bf1a 25bd f0fc 323d a266 043d e1ea b33c
00000180: f05a 87bd 136e 7fbd f080 8dbd 1fb4 17bc
00000190: bcfe 993d 7524 45bc 9ae2 10bd 99fd 693d
000001a0: db0e 45bd 18b1 66bc fa12 9b3d 5d5d 923d
000001b0: 4968 bc3d 45fd a7bd d1e2 7a3a 726a 0fbd
000001c0: 906d 6ebd 2b30 6cbd 2bad cd3c 246c 733c
000001d0: 3ab2 6abd 94b4 82bd 1b4a a0bd b37c 123e
000001e0: 8d39 2fbc 2cc6 b8bc 7997 06bd c28d 7dbd
000001f0: 8f8f f5bd 2b36 a2bd 98ef c53d 6c41 503d
00000200: 81c2 7bbc 69e8 b1bc b99a ca3d 78b1 e13d
00000210: c085 ef3d ca0e 203d 1945 833d 5141 d7bb
00000220: 1b4f 87bd 4ff7 e5bd cde5 ab3d 54c7 f6bb
00000230: 422d 663d 5ee5 8f3c 2e32 d2bd 656d 63bd
00000240: f56f 683d 022b e6bb 082f c8bd 3bea 403d
00000250: 4825 123c de32 bebc e2ae d73c e457 6b3c
00000260: a60a 5dbd 5352 1a3e 38da e63d 5652 523d
00000270: 7953 58bb 1d20 bfbd 3c93 d93d 2b4a c9bd
00000280: cd7d 16be 655e 5b3c c97e 153c a7a6 d03a
00000290: 641d 05bd 6ad5 96bd 1e50 88bc 06d9 983d
000002a0: be5d 0dbd 1d1f debd 994e 9e3d dd30 823d
000002b0: ca1e 063e 5c82 093d b3a5 243e 7560 e63d
000002c0: b3f5 57bd 77a3 0c3e b111 913d 2f8c 42bd
000002d0: 9838 eabc 3fa5 ffbd adc9 b2bd e136 9dbd
000002e0: a286 9c3d af68 1ebd 1c34 8d3c fcff b23d
000002f0: 199e 863d 89e4 c8bd 869c 463d 6824 a63d
00000300: b679 eebd 49ac d63d 0bc1 16bd 2f11 9cbd
00000310: 3d92 d9bd 32ed ff3d ad40 893a be84 a83d
00000320: 6bec 583b 2209 193d d318 59bd 652a c7bd
00000330: 24b1 f8bb 5b42 c0bc c0d7 62bc eca4 acbd
00000340: 10bc 2bbd 18a7 a5bb 1316 4b3d b7be d0bd
00000350: 8702 583d 4997 703d 059c ef3d 41da ec3d
00000360: 451c 00be 36d8 d63d 81bb d8bd f8db 4f3d
00000370: 3b5d 9d3c 404c 993d 051d 55bd b208 b63d
00000380: 8fab 67bd d2e4 acbd 784a 983d 26fd a83d
00000390: ac8b 1d3e 7906 1d3c 821f c83d 5b5a bb3d
000003a0: c471 86bd 3728 03be f2fa c03d 8625 04bd
000003b0: 8ccc b83d a0b8 8abd 50ac f93d a08f ac3d
000003c0: bc63 b43c cc93 b73d 675b 11bd c524 a9bd
000003d0: cb87 a2bd c625 21be c629 46bd 2b1b e5bd
000003e0: 47bf 9c3c 091f fe3d 7de0 873d 703b 823b
000003f0: 3b80 e2bd ac31 273d bb7a 2c3d 70a1 aebd
0.034153707 -0.089589134 -0.036695916 0.06944614 0.07772163 0.098242894 -0.03371697 -0.10113424
0.10352143 -0.0017361344 0.0034264503 0.11898145 -0.03376541 0.14525166 0.17698826 -0.08664697
-0.08270327 0.038474254 0.022441583 -0.022915984 -0.06733338 -0.024102017 -0.13098262 -0.09260156
-0.114504725 0.05900087 0.06963167 -0.034063216 0.0003809707 0.057937585 -0.0010069245 -0.07823476
0.073356636 0.06905796 0.00946785 0.022168256 0.11478361 0.095409505 -0.09099964 0.116991505
0.012686168 -0.11385977 0.08413288 -0.085616924 0.091818854 -0.104056895 0.016842388 0.026017463
-0.0077799195 0.06986788 -0.071095794 -0.085432105 -0.14008164 -0.042972866 -0.06907419 -0.008568378
-0.037306778 0.028151566 0.08904954 0.020595005 -0.04701604 -0.06962041 -0.11471936 0.13136089
-0.0059379223 0.018172137 0.022075709 -0.07367965 0.04783757 0.0969775 0.022606367 -0.06845485
-0.019434247 0.028747525 -0.039295733 -0.048580974 -0.005205187 -0.029127147 0.03822667 -0.03469814
-0.026572123 -0.053875633 -0.13108192 0.07897404 -0.00507742 0.06353484 -0.056368813 -0.07685628
-0.16144793 -0.091123655 0.063900635 -0.13283408 -0.04030871 0.04369825 0.03232444 0.021962585
-0.06609142 -0.062360834 -0.069093585 -0.009259253 0.0751929 -0.012032618 -0.035372354 0.057126615
-0.04810987 -0.014080308 0.07571979 0.07146714 0.09199578 -0.08202604 0.00095705414 -0.035013624
-0.058209956 -0.057663124 0.025106987 0.014857326 -0.057298876 -0.06382099 -0.078266345 0.14305381
-0.0106948735 -0.022555433 -0.0328593 -0.06190277 -0.11990272 -0.07920488 0.096648395 0.05084364
-0.015366198 -0.021717267 0.09892792 0.110201776 0.11695433 0.039076604 0.06409664 -0.0065690656
-0.06606885 -0.11228811 0.083934404 -0.007531086 0.056195505 0.017565425 -0.10263477 -0.05552425
0.056747396 -0.00702417 -0.097745955 0.04709838 0.008920021 -0.023217615 0.026328508 0.0143642165
-0.053965233 0.15070467 0.11272091 0.051348053 -0.0033008738 -0.09332297 0.10623786 -0.098285995
-0.14696427 0.013389205 0.009124466 0.0015918807 -0.032498732 -0.07364924 -0.016639765 0.07463269
-0.034513228 -0.10845778 0.07729835 0.06356976 0.13097683 0.033571586 0.16078834 0.112488665
-0.05272455 0.13734232 0.070834525 -0.04749697 -0.02859144 -0.1248269 -0.08729873 -0.07676483
0.07642867 -0.038674053 0.017236762 0.087402314 0.065731235 -0.098092146 0.048489116 0.08112413
-0.11644308 0.104820795 -0.036805194 -0.07620465 -0.10623596 0.12496413 0.0010471545 0.082284436
0.00330999 0.037362225 -0.05300219 -0.09724883 -0.007589476 -0.02346914 -0.013845384 -0.08429894
-0.041927397 -0.0050553195 0.0495816 -0.10192626 0.052736785 0.058738027 0.1169968 0.11565066
-0.12510784 0.10490458 -0.105826385 0.050746888 0.019209495 0.07485247 -0.05202963 0.08888377
-0.056560095 -0.084420815 0.07436079 0.08251409 0.15385312 0.009584063 0.09771635 0.09148093
-0.06564668 -0.1280831 0.09422864 -0.032262348 0.09023389 -0.06773496 0.12191069 0.08425832
0.022020213 0.08963737 -0.03548756 -0.08258966 -0.07936057 -0.15737066 -0.048379682 -0.111868225
0.019134177 0.12408263 0.066346146 0.0039743707 -0.11059614 0.040818855 0.042109232 -0.085268855

feature.layers_conv.1.bias f4 [8]
00000000: e985 133d c55a c53d 2701 d53d 6f6f 013e
00000010: 07e5 16bd 6256 b93b 85a4 5f3c d65a 043e
0.03601638 0.096364535 0.104006104 0.12640165 -0.03683951 0.0056560496 0.013650064 0.12925276

feature.layers_conv.2.weight f4 [16, 8, 5, 5]
00000000: 1ea8 6dbd 0282 f5bc f033 513c e653 49bd
00000010: 9281 793c 9e11 7aba ba18 38bc 9442 193d
00000020: 1d33 3c3d 3419 6c3d b4d5 153d a092 70bb
00000030: e5ae 443d 0dc7 1f3d b1da 7abd 3cc2 1d3d
00000040: 6b97 c43b bbdb 34bd 0b3f 14bd 7cb9 2cbd
00000050: 8e8b 3bbd 8cc1 ffbc 88da 1b3c 1c91 aa3c
00000060: b1e7 08bd 83cf 53bd d65d aa3c a259 22bd
00000070: 1679 033d 72ec b5bd 85db 2fbb ce58 6c3d
00000080: cd73 953c 6871 76bd 2a2f acbd 7ebf 123d
00000090: e7dc 6a3d 5987 36bd 0646 6fbd 16ff 3abc
000000a0: 1e15 003d 4bd6 b03d ee51 11bd 8b48 a73c
000000b0: 9a53 3ebd c695 b53c 104b 583b 04ab 783d
000000c0: d6c4 bdbc 7a4c 1dbd 3d1d 1dbd 36b2 7cbd
000000d0: 5be5 1d3d 8bce 5fbc 64df 55bd 4785 513d
000000e0: 1e24 343c 6733 553d 313c a9bc 5e7f a5bd
000000f0: 5b74 f83b 4c43 953d bf85 24bd da42 e23c
00000100: 9b4c 9c3b 663f 1cbc fce0 bb3c e66d 833b
00000110: 3917 fbbc 33d6 ca3b 697b 8fbd a712 49bd
00000120: 34bf b6bc c49c 45bd 8b92 f4bb dd21 7e3d
00000130: 8904 df3d 8abb 9c3b 4f51 ad3d 1d50 a23d
00000140: ab18 023c a046 913d 86ba cc3d 2d74 e23d
00000150: bd6a ab3d f6be 22b9 fc6b 933b 5bfa 633b
00000160: 6bae 133d 8307 bf3d f070 c7bc 995c fe3c
00000170: baf7 19bd 384f 313d 9a31 c53c 8c03 97bd
00000180: bf58 f03c 636d bebd 0c2a e7bc ded4 a7bc
00000190: 88ff babd 2c92 683c 0ab9 48bd a136 4c3b
000001a0: 982c 3a3c 1091 e73c 0b51 a0bc 1193 b43c
000001b0: aa43 f93c 51e8 76bc e1ca 2cbd a3c1 34bd
000001c0: 3709 ccbb 01f0 f43b c7e7 b1bd 002a 653c
000001d0: 7c6c b1bc 91fa b8bd ddbb e6ba ec46 d63c
000001e0: 8325 88bb b93b 023d 37d5 74bc fc87 8dbd
000001f0: 8b8c 5cbc d541 613d 3a0b b8bb 8bc2 953d
00000200: 9304 233d 3757 19bc 1897 22bb a1c6 883d
00000210: 82e3 8bba d878 a33d 028d 823d 53dd ff3c
00000220: e9e4 c33d aa86 053d 8220 93bc fcbf 513c
00000230: 9910 09bd fb99 1c3d 7ac5 993d 0a6e 3cbc
00000240: ae83 4f3c bfd3 ef3c cb12 a6bd 0c59 25bd
00000250: 89f7 553d 853d fc3c 9319 b53c 3ca4 ef3b
00000260: 7e1d 5f3d 2252 cc3a 99e2 68bc c7d6 74bd
00000270: 27db ad3d 184a f63d 5463 cf3d 46bf 103d
00000280: 7d70 1f3d fbe4 4abc b0d5 d23d de15 963d
00000290: 306d 203d c8e8 30bd af25 0bbd b3e1 f0bc
000002a0: e06e 6f3d f010 f03c 7e5f cc3a 341e 963c
000002b0: 508c 5fbc 2e81 243d c0e4 093d d597 f23c
000002c0: f988 8fbd 36b3 3dbc 7ddb d8bc c2ff 663d
000002d0: 4f9b acbd ce27 86bd 9cdc c5bb 767f 783d
000002e0: 7b03 1e3d 138e a0bd 47bf 8ebd 5715 893d
000002f0: 5baf d63b ab1f 80bd f017 1bbd 62cd 5d3b
00000300: d14c fbbc 8872 8fbd be91 77bd a6dc 6bbd
00000310: e9f5 c9bc 8e8d ba3c ee58 db3c 027c 10bd
00000320: a316 63bd 5f44 bcbd efd2 e33c d567 3d3d
00000330: 8632 703d 209f dabb b6fe 36bd 0a6b b9bc
00000340: 7782 1f3c dd93 84bd 3733 12bd f4e6 bebd
00000350: 4798 cebd fa3f e9bc be2a 04bd f247 a4bd
00000360: 6a06 c3bc 184c e3bc 0d72 54bc 85dc 42bd
00000370: e251 d2bd a425 10bd ca09 81bd b0df 57bd
00000380: 7cb7 283d e424 a83c 3335 4a3d 864b 52bb
00000390: 4edb 10bd f16c 1d3d afc9 37bd 2751 883c
000003a0: f570 42bd 9316 7d3d f1d2 1ebd a818 413d
000003b0: 135e 2a3d b3d4 353d bb07 193d 7ba2 483c
000003c0: 0f97 9bbc 2b00 2fbc 79a7 19bd 1e47 a8bd
000003d0: cf3c 573d 65da a8bc d865 973c 874b 9dbc
000003e0: 82b8 74bb e5ec 69bd 9be1 bebd 45be 403c
000003f0: 4319 c83b b908 673c 9e95 8dbd 9ee9 3cbd
-0.058021657 -0.02996922 0.0127687305 -0.049152277 0.015228646 -0.00095393683 -0.011236364 0.03741701
0.045947183 0.057641223 0.036580756 -0.003670849 0.048018355 0.03900819 -0.061243717 0.038515314
0.0059994957 -0.044154864 -0.036192935 -0.04216908 -0.045787387 -0.03122022 0.009512551 0.020821147
-0.033424083 -0.05171157 0.020796698 -0.03963626 0.0320979 -0.08882989 -0.0026833725 0.05770188
0.018243695 -0.060166746 -0.08407433 0.035827152 0.057339575 -0.04456267 -0.05841639 -0.011413356
0.03127014 0.08634623 -0.035478525 0.020420333 -0.046466447 0.022166144 0.0033003725 0.06070997
-0.023165148 -0.03840301 -0.038357962 -0.061693393 0.03854881 -0.0136600835 -0.052214995 0.051152494
0.010994939 0.052050974 -0.020658584 -0.08080934 0.00758223 0.072882265 -0.040166613 0.027619768
0.0047698743 -0.0095366 0.02293443 0.0040109036 -0.030650722 0.0061900853 -0.070059605 -0.049090054
-0.02230797 -0.048245206 -0.0074637583 0.062044013 0.10889537 0.0047830986 0.08462774 0.07925437
0.007940452 0.07093549 0.09996514 0.11057315 0.08369968 -0.00015520662 0.0044989567 0.0034786675
0.03605501 0.093276046 -0.024345845 0.031050013 -0.037589766 0.04328844 0.024071503 -0.073737234
0.029339192 -0.092982076 -0.028218292 -0.020487245 -0.0913077 0.014195006 -0.049004592 0.003116049
0.011363171 0.028267413 -0.019569894 0.022042783 0.030427773 -0.015070037 -0.042185668 -0.04412998
-0.0062266844 0.0074748998 -0.08686786 0.013987064 -0.021658175 -0.09032167 -0.0017603595 0.026156865
-0.0041548624 0.031795237 -0.0149434125 -0.069107026 -0.013461242 0.054994423 -0.0056165727 0.07312497
0.039799284 -0.009359173 -0.0024809297 0.066785105 -0.0010672661 0.079820335 0.06374551 0.031233465
0.095651455 0.03259913 -0.017959837 0.01280212 -0.033463094 0.038232785 0.07508369 -0.011500845
0.012665672 0.029275773 -0.08109053 -0.040368125 0.05223802 0.030791054 0.022106921 0.0073132794
0.054471485 0.0015588442 -0.014214181 -0.05977514 0.084890656 0.12025851 0.10126367 0.035338663
0.038925637 -0.012383695 0.10294664 0.073283896 0.03916663 -0.043190747 -0.033971485 -0.029404497
0.058455348 0.029304951 0.0015592424 0.018324949 -0.013644293 0.040162258 0.03366542 0.029613415
-0.07008547 -0.011578372 -0.026471848 0.056396253 -0.0842806 -0.06550561 -0.0060382616 0.06066843
0.038577538 -0.078395985 -0.06970077 0.066935234 0.0065516657 -0.0625604 -0.037864625 0.0033844342
-0.030676277 -0.07004267 -0.060441725 -0.057583474 -0.024653392 0.022772577 0.026775803 -0.035274513
-0.05544151 -0.09192728 0.027810542 0.0462416 0.058641933 -0.006671801 -0.044676505 -0.022634048
0.009735695 -0.06473515 -0.035693374 -0.093213946 -0.10087638 -0.02847289 -0.032267325 -0.08021535
-0.02380677 -0.027746245 -0.012966645 -0.047573585 -0.10269524 -0.035192147 -0.06300695 -0.05270356
0.04119061 0.020525403 0.04936714 -0.0032088473 -0.035365395 0.038433973 -0.044870075 0.016640259
-0.047471005 0.061789107 -0.03877539 0.047142655 0.041593622 0.0443923 0.037360888 0.01224577
-0.018992929 -0.010681192 -0.03751323 -0.082166895 0.052548226 -0.020611951 0.01848118 -0.019201053
-0.003734142 -0.057110686 -0.093203746 0.011764114 0.006106527 0.014101201 -0.06913303 -0.046121232

feature.layers_conv.2.bias f4 [16]
00000000: c68d 783d fdd5 50bd 3f9b 11bd cf23 463d
00000010: 5a4b b13c 7545 143e 8d5b f93c c4d8 adbc
00000020: 9af4 dcbc 9335 45bd 2e5e d7bd 3863 aabd
00000030: 8ab4 3fbd 52f0 a43d dff7 9c3d 47d7 78bd
0.06068208 -0.050985325 -0.035548445 0.048373993 0.021642376 0.14479621 0.030439163 -0.021221526
-0.026972104 -0.048146795 -0.1051601 -0.08319706 -0.046803035 0.0805365 0.07664465 -0.06075218

feature.layers_conv.3.weight f4 [16, 16, 3, 3]
00000000: f94c 333d 0e9f 6fbc ccbc fbbd 0998 a73d
00000010: a88a 41bd 640e b9bd fadd 6a3d 245a e63c
00000020: 16c4 9dbc 65b7 473c eb9e 803a b4ee 2cbc
00000030: 6890 83bd d589 243d 787b fd3d 01af c4bd
00000040: f1de 81bd 48dc 5d3d 4399 2f3d 5cf5 59bd
00000050: 157b 06bc 7855 dfbc b794 d33c da78 a4bd
00000060: 2b59 963c 1c17 a73d 6b9e 9fbd d56f 2d3d
00000070: 4faa b73d 1356 093e cbf7 0ebe 0762 d33c
00000080: 25ea 9a3d 131d 34be cbda b03c b330 c8bc
00000090: a649 dc3c 2626 363d f6ce eb3d 53ff e0bd
000000a0: 808a 1dbe dcae 673d f2aa 2ebe a647 cebd
000000b0: 9c6c 0c3d 015b 9dbc c49b 1c3d 7a1d f03d
000000c0: caad a13c aa96 43bd dec5 ae3d 5925 febc
000000d0: e47a 00bc 02da 043d 92bc b2bc 3248 75bd
000000e0: 2d17 f1bc b8b5 af3d d309 a7bd 5ba6 d33b
000000f0: 060a 9b3d eb8f 843d bbeb 3f3b 0b30 973d
00000100: b47d eb3b 2653 78bd abba 01bd 483b 9bbd
00000110: 79ad 8dbc 1652 2b3d 83f5 c03b 7671 a6bd
00000120: 56f4 8e3d defd 6fbd 7f86 00be 3110 dc3d
00000130: aeb5 fb3a f3f7 65bc 3a2b 003d 36d2 aa3d
00000140: 9906 73bd 082d a9bd 1d60 c1bb 6cbb 5dbc
00000150: 8bde 1bbd 2f34 0cbd 4ae3 083d 3d1c e53d
00000160: c3b8 a5bd c504 a0bd 1403 183d 88c8 173d
00000170: 18f7 0abd e7d8 35bd 8158 c93c 675f 893d
00000180: 0525 98bd 76dc dd3c 8237 773d a883 873c
00000190: 6194 803d a44e aabd 355e 843d 522a b5bb
000001a0: 09e1 3abd 6c3f cd3c e5e6 efbc d852 293d
000001b0: 6a86 e2bd 769c 023a eddd 7d3c 5690 803b
000001c0: 5870 3f3d a6bf c93d b2a8 9b3c 93bc 61bd
000001d0: cbcc a43d 4865 d4bc 50f8 7f3d 2767 8f3d
000001e0: 0eac cbbd 5f86 3abd 9818 f63b f841 01be
000001f0: 5efd 30bd bca1 993c 0ad1 093d b11a 103d
00000200: a381 13bd d39e a9bd 9762 0bbd 563a abbc
00000210: d081 40bd 2711 94bd 2a71 a2bd 26be f53d
00000220: a6a1 21bb db17 96bc 12b0 6e3c 51b3 ec3c
00000230: a822 433b 0588 9a3c 9a22 83bd afbd 85bd
00000240: 9f40 1e3d 406e c8bd 4e43 53bd c36e b83c
00000250: 253b 203d d19f 083d 3282 47bd c793 593c
00000260: cf6d 823c 6b19 68bd 51b0 8bbd 370a 08bd
00000270: eb16 a63d d2a4 bebc f7c7 5b3b df0a 6e3d
00000280: fe61 363d 24c1 683c b2a9 3bbd 8d52 e63c
00000290: 4bd9 b8bd 48ee 7ebc db6e 24bc 56dd 09bd
000002a0: 4227 8e3d 993d c2bd 082c 92bd d346 ea3d
000002b0: 98fd 803c 3c7d e33b f11e 8e3d ae3d 063e
000002c0: a379 a83c 169a 193c 4a76 863b bd61 44bc
000002d0: c616 3dbc d433 b93d d314 6a3c bcff 323c
000002e0: 06eb 763d e1c4 063d b255 373d 7fcb a7bc
000002f0: 63c4 cb3d 7d10 a5bd 70be 8b3d 666f c3bc
00000300: 4272 693d e86b 463d 2b9d 90bd 1c6d 44bd
00000310: 0b5a 273d e5f7 99bb d31e bfbd fdad 96bd
00000320: e83e a4bd 3378 0e3b 1569 c0bd 5204 80bd
00000330: 7223 003c 1eb9 a7ba 2704 66bd 84ab f0bd
00000340: 861f f03c 112a 7d3d f250 8ebd e2e6 923d
00000350: f406 28bd 1a98 223d 1803 4e3d b7ec 80bd
00000360: 2b69 d3bb cd28 8cbd 374e 23bd 499a aebc
00000370: 79a1 b5bd bd8d 9b3b 4908 273d e918 2abd
00000380: 237a 803c fa66 23bd b76b 703d b6cc d93b
00000390: 6693 9e3c b213 5c3c abe1 2d3c d97b a6bc
000003a0: cb85 4cbd df38 74ba f8a1 1bbd 92b5 923d
000003b0: a0d6 5abd 9d68 3cbb f097 0fbd b6bc aebd
000003c0: 66d7 e03c 803d 8abd 81bc 643c 7f82 36bd
000003d0: 9d8a 1f3d 8d07 933d 2969 463d 09c6 963d
000003e0: 2fd6 e7bb d482 c4bd 8e37 11bd 2a8f 96bd
000003f0: 4696 9b3d 71b7 b1bc 2de9 923c 10ee ee3d
0.04377458 -0.014625324 -0.122918695 0.08183295 -0.047251374 -0.09035948 0.0573406 0.028119154
-0.01925854 0.012189721 0.0009812986 -0.010554958 -0.06424028 0.04017051 0.123770654 -0.09603692
-0.06341351 0.054165155 0.04287077 -0.05321251 -0.008208056 -0.027262434 0.025827749 -0.08030863
0.018353065 0.08158705 -0.07793888 0.04234298 0.08968031 0.13411741 -0.13961713 0.025803579
0.07564191 -0.17589216 0.021588704 -0.024437284 0.026890587 0.044469975 0.11514084 -0.10986199
-0.15384865 0.056563243 -0.17057398 -0.100722596 0.034283265 -0.019208433 0.038234487 0.11724372
0.01973619 -0.047751106 0.08533834 -0.031023668 -0.007841799 0.03243447 -0.021818433 -0.059883304
-0.029429996 0.08579582 -0.08156171 0.00645904 0.07570271 0.06472763 0.0029284793 0.0738221
0.007186616 -0.06062617 -0.03167216 -0.075796664 -0.017294632 0.04182633 0.0058886423 -0.0812711
0.06980197 -0.058591716 -0.12551306 0.10745276 0.0019203925 -0.0140361665 0.031291224 0.08340876
-0.059332464 -0.08260542 -0.00590135 -0.013533454 -0.03805403 -0.034229454 0.033419885 0.11187027
-0.08091881 -0.0781341 0.03711231 0.037056476 -0.033927053 -0.044396307 0.024578335 0.0670765
-0.07428936 0.027082663 0.06035567 0.01654227 0.06278301 -0.08315781 0.06463281 -0.0055287266
-0.045624766 0.025054656 -0.029284904 0.04133877 -0.11060794 0.0004982421 0.015494806 0.003923456
0.046738 0.09851007 0.019001339 -0.05511148 0.08046874 -0.0259272 0.06249267 0.070020966
-0.09944926 -0.045538303 0.007510256 -0.12622821 -0.04321038 0.018753879 0.03364662 0.035181705
-0.036012303 -0.082822464 -0.03402957 -0.02090184 -0.0469988 -0.07229834 -0.079317406 0.119991586
-0.0024663 -0.018321922 0.014568346 0.028894098 0.0029775295 0.018863687 -0.06403084 -0.0653032
0.038635846 -0.097866535 -0.05157786 0.022513753 0.039118905 0.033355538 -0.04870815 0.013279862
0.015921501 -0.056664865 -0.06820739 -0.033212867 0.0810984 -0.023271952 0.0033535936 0.058115836
0.044527046 0.014206205 -0.04581613 0.028115535 -0.0902582 -0.01555974 -0.010036196 -0.033658348
0.069410816 -0.09484405 -0.071373045 0.1143929 0.015745923 0.0069424193 0.06939495 0.13109466
0.020565813 0.009375116 0.0041034566 -0.011986193 -0.011541074 0.090430886 0.014287191 0.01092523
0.06028273 0.032902602 0.04475946 -0.020482777 0.09949567 -0.080597855 0.068234324 -0.02385683
0.05699373 0.04844275 -0.070612274 -0.047955617 0.040857356 -0.004698741 -0.09332051 -0.073574044
-0.08019811 0.0021739125 -0.09395043 -0.06250824 0.007820951 -0.0012796258 -0.056156304 -0.11751464
0.029311907 0.061807696 -0.06949033 0.07172944 -0.041022256 0.039695837 0.05029592 -0.0629515
-0.006451746 -0.0684372 -0.039869513 -0.021313803 -0.08868689 0.004747121 0.040779386 -0.041527662
0.01568324 -0.039893128 0.058696475 0.006646718 0.019357394 0.01343243 0.0106128855 -0.020322727
-0.049932282 -0.0009316336 -0.037996262 0.07163538 -0.05342734 -0.0028748878 -0.03505701 -0.085320875
0.02744646 -0.067500114 0.013960958 -0.044558045 0.03895055 0.071791746 0.048440132 0.07361991
-0.007075093 -0.09595266 -0.03545337 -0.07351525 0.07597022 -0.021693917 0.017933453 0.116665006

feature.layers_conv.3.bias f4 [16]
00000000: 3114 fabd b2d7 bd3b 4e7f 873d 5e33 b93d
00000010: 4173 2c3d 3fab afbc 6733 723c b14c 203d
00000020: 5913 b3bc ec5c 90ba 1cd9 92bc 3764 82bd
00000030: 9a0a e33b 47d0 cbbd b807 48bd 68c3 443d
-0.122108825 0.005793535 0.06616078 0.09043001 0.042102102 -0.021443961 0.014782763 0.03913564
-0.021859812 -0.0011014021 -0.017925791 -0.06366771 0.006928754 -0.09951835 -0.048835486 0.048037916

feature.layers_conv.4.weight f4 [16, 16, 3, 3]
00000000: 40c9 a6bd f293 33bd 6b0b 733d ce62 a8bd
00000010: 27fc 88bc f451 a73d e7a3 113b ac54 e33c
00000020: 57f2 a93c 8a77 c33c b89b ca3d 5ea7 db3d
00000030: 1f9b df3b 7c1d e6bc dbeb 28bd f253 373c
00000040: 4c46 abbd 8560 cfbd 7f32 6abd a093 5d3d
00000050: adc7 133d e8e8 263d a4ad debc f812 87bd
00000060: 81d1 503b 05a1 46bd 3275 7fbd 6aac 503d
00000070: d48d 38bd f3e7 9dbc 05f0 5cbd 1af8 dabc
00000080: 7e20 0dbd 26b5 79bd ec87 c23c d1dd 40bd
00000090: 47c8 a3bd 555c 1b3d fb5d 33bd 1211 883d
000000a0: bf2e 69bc a113 ca3d 7bdc 31bd bbba 0c3b
000000b0: 4592 013e 35af 66bd 5725 acbd 6914 de3b
000000c0: c376 8fbd 362f 2a3d e429 a5bc 84d6 bf3d
000000d0: 53bb ae3d 7674 e43d 7e48 033b 363b 27b8
000000e0: d753 113b e6da 233d 315f cebd ee5c cb3c
000000f0: 8a23 773d 9d8e 80bd 6eb5 f33c 662f 773d
00000100: 277f 533d 8052 ea3c db7b 7a3d 49d1 113d
00000110: 03a5 51bc 4808 5b3d dccf b4bd 630d 5cbd
00000120: a6ae 2dbd 41c5 a23d 78ea a93d e68f d03d
00000130: c2ec a5bd 0af5 b23c 73f1 ddbc 19a6 48bd
00000140: 982c 85bd d52b b2bd adac d7bc 1df2 533d
00000150: 776f 123b 3fa8 18bd e06d cfbb 6995 1bbd
00000160: 9128 cbbc 47ca ab3d b2fc 72bc da55 8d3d
00000170: 8676 08bd 6eb0 ea3c acb3 bb3c aeb9 87bc
00000180: 0149 af3d 2edb 95bb 8fbb 55bd 28e2 abbd
00000190: 3f55 89bd 2564 3c3d 5819 3d3d c9ce 633d
000001a0: c786 09bc ab6d 5dbd 3c77 a73d 0800 68bd
000001b0: c4dd 503d 227a 883d 0bc4 2f3d cb01 b13d
000001c0: e9ea 303c 9234 adbd dd2f 83bc e728 aabc
000001d0: e842 89bd 6886 b73d e526 983d a89a 27bc
000001e0: 04b4 e43b 7f70 59bd 9ede 96bd ffa8 3cbd
000001f0: c782 59bd 626f 28bd 122b d1bd 65e2 dabd
00000200: 2df9 f33c 4e8a f93c f763 b7bd f27c 88bd
00000210: ea73 ae3c 89ad cc3c e77f 3fbd bff5 c73c
00000220: ff82 0ebd d770 0f3d 422b 51bd a3ab 94bc
00000230: a266 ca3b 0311 03bd 3f9e a03d f78a 0dba
00000240: f689 45bb 29f4 10bd 81b5 a7bd 56af 043d
00000250: bb98 ffbc d3fe 95bd 5911 f3bb 2298 a8bd
00000260: b53b 6cbd 8bb8 fc3c c41b 933d cc4a e8bc
00000270: 8cda 91bd a220 fabc 6471 b9bc 34d6 f3b9
00000280: fbb2 a9bc 3e65 b03d 9b6d 753c fff4 d63c
00000290: b7f4 24bd 6bf1 e13d 449f ed3d 05a6 d7bc
000002a0: be42 f13c 4d28 c03d 4fb9 bf3d 9b70 58bd
000002b0: 4827 adbb d042 bb3b 264b 88bd d49f 97bd
000002c0: 7a2b b03c a8a7 8bbd 5487 c93c b6e4 e0bc
000002d0: 5cda 13bd 42fb 01bc 6810 2ebd 8871 7cbd
000002e0: 2554 ccbc 753b 2abd 42dd b0bc 889d 2f3d
000002f0: 753c 553c 53d4 68bc bc3d 6f3d eb2e 003d
00000300: 8076 193d f600 1dbc b33f 08bd e8d4 053d
00000310: c378 0b3d 9ac4 7dbd 5fb4 163d e908 bdbc
00000320: 45d8 eebb f7de 403c 9073 4c3d 2926 0f3d
00000330: 7018 72bd c1e4 95bc 533b 813b 7d04 493d
00000340: 3a44 c13c 3273 bc3d b67c 553d 0fa9 92bc
00000350: f3dd 86bb 1594 b5bc 1b22 b53d 05a7 a73c
00000360: 81b3 a23d 75c2 363d 8af7 3e3d ceb9 423d
00000370: ac26 9cbc 197e 4b3d c055 25bd 701d 03bd
00000380: 79c0 a73d 17ea 9cbd b39b 153d 0ea6 423d
00000390: abb6 3fbc 5f02 ea3b 6c5c 493d 2efd 3ebc
000003a0: bb47 73bd fd5f 9a3d 9e29 1b3d 0e9e 733d
000003b0: 276a 353d 7a77 9b3d e68a 6e3d c80c f0bc
000003c0: 9e67 b33d 9ded e9bc 08ba 353d be55 26bd
000003d0: 00d9 723d 7f1e 3c3d c9ec 75bd ad6a 7f3d
000003e0: 7fe5 893d 3967 bfbd 4ff6 293d 968f 25ba
000003f0: 9c72 9bbd 48bf 7c3d 65a7 7e3d 7074 38bc
-0.08143854 -0.043842264 0.05933706 -0.082219705 -0.016721798 0.08169928 0.0022222938 0.027750336
0.02074544 0.023860712 0.09892982 0.10725282 0.006823912 -0.028090231 -0.041240554 0.011189448
-0.083630174 -0.101258315 -0.057177063 0.054095864 0.036079098 0.04074946 -0.027182408 -0.06595415
0.0031863155 -0.048493404 -0.062367626 0.050945677 -0.045057133 -0.019275641 -0.053939838 -0.026729632
-0.034454815 -0.060963772 0.023746453 -0.04708654 -0.07997184 0.03792985 -0.0437908 0.06643881
-0.014232337 0.09867025 -0.043423157 0.0021473605 0.12653454 -0.056319434 -0.084055595 0.0067773354
-0.07005074 0.04154893 -0.020161577 0.093670875 0.08531823 0.11155026 0.0020032222 -3.9871047e-05
0.0022175217 0.04000368 -0.1007675 0.024824586 0.060336627 -0.06277201 0.029749598 0.060347937
0.051634934 0.028603792 0.061153274 0.03559998 -0.0127956895 0.053474694 -0.088287085 -0.053723704
-0.042402886 0.079477794 0.082966745 0.101836964 -0.081017986 0.02184536 -0.027092671 -0.048986528
-0.06502646 -0.086997665 -0.026327455 0.05174457 0.002234427 -0.037269827 -0.006330237 -0.037984286
-0.024799617 0.08388191 -0.014830755 0.069011405 -0.033316158 0.028648581 0.022912823 -0.016568031
0.08558846 -0.0045732474 -0.052180823 -0.08392745 -0.067057125 0.045993943 0.046166748 0.055617128
-0.00839395 -0.054059666 0.08177039 -0.056640655 0.050992742 0.0666392 0.04291157 0.0864292
0.010798194 -0.084572926 -0.016014034 -0.020771457 -0.067022145 0.08961183 0.074292935 -0.010229744
0.0069794673 -0.0530858 -0.073666796 -0.046059605 -0.053103235 -0.041121848 -0.10213293 -0.106877126
0.029781902 0.030461457 -0.08954614 -0.066644564 0.021295507 0.024985092 -0.046752837 0.024409173
-0.034792896 0.03501972 -0.051066644 -0.018148249 0.0061767856 -0.031998646 0.07842683 -0.00053994305
-0.0030142046 -0.0353891 -0.08188916 0.032393776 -0.031200757 -0.073239945 -0.0074178395 -0.08232142
-0.05767413 0.030849716 0.0718303 -0.028355978 -0.07121763 -0.030533139 -0.022637077 -0.00046508166
-0.020715227 0.086130604 0.014979745 0.02623987 -0.04027244 0.11032375 0.11602643 -0.026324281
0.02945077 0.09382687 0.09361517 -0.052841764 -0.0052842237 0.005714752 -0.066549584 -0.07403532
0.021505106 -0.06819087 0.024600662 -0.027452808 -0.036096916 -0.00793344 -0.042496115 -0.06163171
-0.024942467 -0.04156061 -0.021589879 0.042874843 0.013014902 -0.014210778 0.058408484 0.031294744
0.037466526 -0.009582749 -0.033263873 0.032673746 0.034050714 -0.061955072 0.03679311 -0.023075538
-0.007288965 0.011771909 0.049914896 0.0349485 -0.059105337 -0.018297555 0.0039438396 0.049076546
0.023592103 0.09201659 0.052120887 -0.017902879 -0.004115814 -0.022165338 0.08844396 0.020465383
0.07944394 0.044619042 0.04662279 0.04754048 -0.019061409 0.049680803 -0.04036498 -0.032010496
0.08191008 -0.076618366 0.03652544 0.047521643 -0.011701266 0.007141396 0.049160406 -0.011657042
-0.05939458 0.075378396 0.037881486 0.059476905 0.044290688 0.07591148 0.058237933 -0.02930297
0.08759998 -0.028555686 0.044366866 -0.040609114 0.05928898 0.04592752 -0.06004027 0.062357593
0.06733226 -0.0934586 0.041494664 -0.00063156465 -0.075902194 0.061705858 0.06217136 -0.01125823

feature.layers_conv.4.bias f4 [16]
00000000: 9103 2abd 1e25 ff3c 1680 0f3d 6299 243d
00000010: 62ea 3f3d 09fc 38bd 97f1 23bd a496 933d
00000020: 0db6 b0bd 87db 053d 8074 febc 72f8 8f3c
00000030: 8531 183c 7c90 323c b1fb 90bc 795b 233d
-0.041507307 0.031145629 0.03503426 0.04018534 0.046854384 -0.045162234 -0.04002532 0.07206467
-0.086284734 0.03268006 -0.03106141 0.017574523 0.00928915 0.010898706 -0.01769814 0.039882157

feature.layers_conv.5.weight f4 [32, 16, 5, 5]
00000000: 9c90 f6bd ff75 91bd c1bd 01be 211d d0bc
00000010: 6abd 81bd c364 8abd 7a59 13bd 9801 dabc
00000020: 1dfa 39bd 9872 7bbd 821e 25bd 6d7a 2b3c
00000030: 7c6c 0c3d 7841 e23c 3503 2cbd e2d6 85bb
00000040: 4463 843d 5bda c13d 650c b03d 7ec4 1d3d
00000050: 2117 e23c b717 4c3d befb 923d f2dd 993d
00000060: a007 af3d 61ea ee3c 2cf2 393d 7286 d63c
00000070: 48e3 3a3d b67e c4bc 931e c63c 9966 ac3c
00000080: c2fb 41bc 6b81 5a3c 00d7 c5ba 5bcf 973c
00000090: 3f14 bd3c 6f54 40bc 0b23 e9bc 9856 a93b
000000a0: fd12 bfbb f427 08bd 8af8 213d 31b3 053c
000000b0: 0da8 7a3c efd5 68bd 8a41 0bbc 10dd 93bd
000000c0: 0740 69bd 09c2 d3bc 024f 573d 82dc 4b3d
000000d0: d32a 793d 4a3b da3b 0cbb be3b 9e9d 0b3d
000000e0: 582a 573d 55d3 6f3d 18c7 a53c ea7a 883d
000000f0: e7aa b5bb 01d1 ac3d 9815 c53c 67dd b43c
00000100: 04e3 493d 42e6 b43d 5d51 4f3d f80d 9a3d
00000110: 6c2a f93d 0fe0 b43d baa1 a93d 710e af3d
00000120: e88e 3e3d ddd2 b73d efd6 ce3c b532 00bd
00000130: 8e9c a9bd be1f 1dbd 46bc d1bd 4b39 7fbd
00000140: d8e3 9ebd d6d2 50bd 7fa3 85bd 1842 07be
00000150: 43da eebd 45e4 e8bd f175 07be 2d5f f4bd
00000160: 83f9 02be a46f babd 7300 16bd 8a82 f4bd
00000170: b0b3 0ebe ab30 97bd ac7a f8bd b2b8 dfbd
00000180: beb6 d0bd f5cf 4cbd 2c2e b1bd e7cb 97bc
00000190: 6e06 873d ef7a ca3c 2f3e 663d e5ad 413d
000001a0: 9e5d 57bd b2e7 ef3c 34b5 223d e140 f83c
000001b0: cba7 0cbd 495f f03c 42cc 56bd 49d6 d23c
000001c0: 3e61 42bd a483 e6b9 d74b b93c bd5b 04bd
000001d0: 0014 91bd 7b3d 52bd 86d2 793c 4074 2dbd
000001e0: 1367 1ebc 1f49 27bd c80e 3cbc 2766 87bd
000001f0: a880 b2bc 02e3 2c3c f844 5c3d af9a 473d
00000200: 8977 9e3d f999 873d cf70 0bbd 7cc2 473d
00000210: cb92 773d e6f2 1a3d 454f 1f3d 6826 383d
00000220: 5140 803a b3f2 b33d 79f9 873d 8800 273d
00000230: 92a8 12bd 7df2 6a3d c253 7e3d 76dc be3c
00000240: 96ae fcbc 79d6 94bc f8f2 e03c a094 13bd
00000250: ddc8 b63b f073 4fbd 6c21 98bb 0bde dc3c
00000260: ad07 2d3d 07fe 90bb c4a3 04bd 80ed f63b
00000270: 535a 5e3c a37d c9bb f1c7 f43c e85e ccbc
00000280: ebae 8abc 7129 d13c b774 17bb e697 f73c
00000290: 6f10 b43c 592f 1abd 7547 0e3d 6626 ba3a
000002a0: caff f33c 797d 41bd 0beb 8ebb eea7 54bd
000002b0: 0596 9abc e240 37bc 29ae 9cbd 5d24 a5bd
000002c0: e20b b0bd cc77 98bd 1b76 1abd f923 70bd
000002d0: a5e8 8bbd a581 10bd c47a b8bd 381d d4bd
000002e0: 6988 afbd a29c 6dbd ceb3 d8bc 1496 b7bc
000002f0: a183 afbd 4c79 95bd f4fa 75bd 2e03 88bd
00000300: e394 073c 8942 cdbb a228 8ebc 7b46 5abd
00000310: 85b6 8e3c f357 25bd 5f7f 38bc 9bef cbbc
00000320: d347 d13c d843 c3bc 7169 fc3c 706c 8b3b
00000330: ca8f cabc dfb8 03bd 4ffc 35bc 9943 0c3d
00000340: 3b67 81bc 4beb b53b 08c6 a73c 4130 b53c
00000350: 1f4e 28bc c381 e9bc 8d7c b53c 553a 853d
00000360: 2bbc 823d 5bf7 b93d df94 a63d 9120 5c3d
00000370: f6b9 053d 0e6f 603c bd06 be3d 1873 093d
00000380: 65c6 893d c110 aebd 0d26 e0bd dfc3 e4bd
00000390: 5457 99bd 253c 8fbd 2e8d 6cbd e324 a1bc
000003a0: fff0 f3bd 9953 92bd 4b95 c7bc 5850 13bd
000003b0: f9af b6bd 397f 4fbd d5a1 ccbd c1bd a8bd
000003c0: f844 66bd 6580 fc3b 4906 53bc ce2d 40bd
000003d0: 7671 fd3a 00be 6fbd 20ed 3abd a8d5 933b
000003e0: 522f ca3b aee0 353d 28a2 c13c c36d 403d
000003f0: 5766 2dbc c743 1c3d b84e dfbc a426 24bd
-0.12039301 -0.07102584 -0.12670042 -0.025404515 -0.06334956 -0.067575 -0.035974003 -0.026612088
-0.045404542 -0.061388582 -0.040312298 0.0104662 0.034283146 0.027619109 -0.041995246 -0.004084454
0.06464246 0.09465476 0.08596114 0.038517468 0.02759892 0.049827304 0.07176922 0.07513036
0.08546376 0.029164495 0.04539697 0.026187155 0.04562691 -0.023986202 0.0241845 0.021045016
-0.011839809 0.01333652 -0.0015093982 0.018531492 0.023080943 -0.011738881 -0.028459093 0.0051677935
-0.005831121 -0.033241227 0.039543666 0.008160398 0.0152988555 -0.056844648 -0.008499512 -0.07219899
-0.056945827 -0.02584936 0.052565582 0.04977084 0.060831856 0.0066599 0.0058206376 0.034085862
0.052530617 0.05855115 0.020236537 0.06664069 -0.005544055 0.08438302 0.024058148 0.02207823
0.049288765 0.08832981 0.050614703 0.075221956 0.121662945 0.08831798 0.082828 0.08547676
0.046523005 0.08975766 0.025248973 -0.031298358 -0.082818136 -0.03836035 -0.102409884 -0.0623105
-0.077583015 -0.05098232 -0.06525325 -0.13208807 -0.11662724 -0.11371664 -0.13228585 -0.11932216
-0.12790494 -0.09103325 -0.036621522 -0.11938961 -0.13935733 -0.073823296 -0.12132773 -0.109239
-0.10191105 -0.05000301 -0.08651385 -0.018529845 0.06593023 0.024716822 0.056211647 0.04728498
-0.052579515 0.029285286 0.03972359 0.030304374 -0.034339707 0.02934231 -0.05244089 0.025736945
-0.04745602 -0.00043967098 0.022619171 -0.03231405 -0.07083893 -0.051328164 0.015247947 -0.042347193
-0.0096681295 -0.040841218 -0.0114781335 -0.06611281 -0.021789864 0.01055217 0.05377671 0.048731502
0.07737643 0.06621165 -0.03404313 0.04876946 0.060442727 0.037829302 0.038893957 0.044958502
0.0009784793 0.087865256 0.0663938 0.04077199 -0.035805292 0.05736016 0.062091596 0.023298483
-0.030844968 -0.018168675 0.027459607 -0.03603041 0.005578144 -0.050647676 -0.004642656 0.026961347
0.04224365 -0.0044248137 -0.03238274 0.0075356364 0.01357134 -0.0061490103 0.029880496 -0.024947599
-0.01692911 0.025532456 -0.002311034 0.030223798 0.021980492 -0.03764281 0.034736115 0.0014202117
0.029785056 -0.0472388 -0.0043615154 -0.051917963 -0.018870363 -0.011184903 -0.07650406 -0.08063576
-0.085960165 -0.074447244 -0.03771029 -0.058628056 -0.06831483 -0.03527989 -0.09007791 -0.103571355
-0.0857094 -0.058010705 -0.026452925 -0.02241043 -0.08570028 -0.07298526 -0.06005378 -0.066412315
0.008275243 -0.006264035 -0.01735336 -0.05328987 0.017421016 -0.040367078 -0.011260836 -0.024894526
0.025546944 -0.023836061 0.030811997 0.00425487 -0.024726767 -0.03215873 -0.011107518 0.034244154
-0.015796294 0.0055517307 0.02048017 0.022117736 -0.010272532 -0.028504258 0.022154117 0.065052666
0.063835464 0.090803824 0.08133864 0.053741995 0.03264805 0.0136983525 0.09278629 0.033557028
0.06727294 -0.08499289 -0.109447576 -0.11170172 -0.0748736 -0.069938935 -0.057751827 -0.01967091
-0.11911201 -0.07144851 -0.02436318 -0.035965294 -0.08920283 -0.05065844 -0.099918045 -0.08239318
-0.056218117 0.0077057355 -0.0128799165 -0.046918683 0.0019336182 -0.058530807 -0.045636296 0.004511554
0.006170192 0.044403724 0.023636892 0.046979677 -0.010583482 0.038150575 -0.027259216 -0.040075913

feature.layers_conv.5.bias f4 [32]
00000000: d786 f23c 85bc a23c dd7f 30bd acf2 93bd
00000010: eaf8 e23c b925 fcbb b29b 35bb a304 593d
00000020: 8645 6fbd f77b 603a 6346 0e3c 6a3a e0bc
00000030: d5a3 70bc 69aa a13d 24f4 1ebd 29f2 3c3d
00000040: 045d 5ebc f327 de3c 06ae 0f3d 2d13 f6bc
00000050: 5c80 f63c afd7 0cbd 7d56 b3bc 7e3d 353d
00000060: a949 f63c 5997 99bb e52c 83bc 61c6 663d
00000070: cea5 21bd f7ec 48bd f960 143d 016a 6b3c
0.029605312 0.019865284 -0.04309069 -0.0722402 0.027706582 -0.0076949266 -0.002771121 0.052982938
-0.058415912 0.0008563394 0.008683774 -0.027371604 -0.014687498 0.07893831 -0.03880705 0.04612938
-0.013571981 0.027118659 0.03507807 -0.03003844 0.030090503 -0.03438538 -0.021891827 0.044248097
0.03006442 -0.0046872315 -0.016012618 0.056341533 -0.039464764 -0.049054112 0.036225293 0.014368535

feature.layers_conv.6.weight f4 [32, 32, 3, 3]
00000000: 45c0 64bd 9326 11bd 58d2 b3bd 7427 eabc
00000010: 117c 3cbd 56e6 5fbc 0e6c ebbc 6dba 89bd
00000020: 9858 a7bd fd2d c23b 71e1 043d e5b1 94bc
00000030: 99e4 b03d 96b3 0cbd 1466 a8bc 51c6 483d
00000040: ea5b 46bc a42d 4b3d 1680 8c3d 3121 9b3c
00000050: a789 283d eb78 5e3d 51a6 95bd 46ed 3f3b
00000060: d7d9 973c 9045 1b3d b3e6 87bd 847e d43c
00000070: 2702 95bc 46d1 903c 5b9e 7fbd 71dc fcbc
00000080: fed6 413c fdc7 953c f246 843b 50a5 013d
00000090: e82a 573d f084 82bc 99e7 90bd 2562 6a3d
000000a0: 8ec8 173d e06f 10be 1c6a 54bc d78d bebd
000000b0: 1bd6 ddbd 019c 29bd 70b3 60bb dce1 56bd
000000c0: f51c 21bd a13d 21bc cb31 9cbc 56dc b3bd
000000d0: 4725 ccbd 22ee 83bd 8bf4 63bc bdde 51bd
000000e0: 4d1a 383d 1fbd 383d 5c47 423d 90a3 dcbb
000000f0: c13e e1bc c20d 86bc ba6c fb3b 0eb8 b0bd
00000100: afc9 0abd bf18 a8bb fbf6 cebd 67a4 64bd
00000110: 6160 b8bc 3b22 88bd 1dd5 2cbd 57c7 2c3d
00000120: bd0f 443b 49ee 16bd 6fb3 6bbd 9e6f 18bd
00000130: 3e33 4fbd 23c3 59bd 2701 a0bd aaca 273c
00000140: 1224 a6bd 177b aabd 84d4 223d e0b1 10bd
00000150: 49f1 82bd ff42 83bd c2b4 19bd 8038 d5bd
00000160: 38f2 27bd 11a9 88bc d9c0 8bbc 925a 7abd
00000170: 330f e93c 6d8c dbbc 9228 bc3d ac99 9e3c
00000180: 3c7f 46bd 085e 56bc a941 18bc 991b efbd
00000190: f83b b0bd a183 fa3c eee3 85bc 1c86 063d
000001a0: 91d8 e13d f0f1 c2bd f6c2 eabd a91b 7fbc
000001b0: d6a5 0cbc 2665 28bd b789 97bc 415f 6ebd
000001c0: 5382 ab3c e309 283d 714d 6dbc 1564 a93c
000001d0: 6271 0ebd 41c5 513d 5200 513c 4ace 6d3d
000001e0: 765d bf3d 1dbe bc3d ed82 e7bc 60ef 95bc
000001f0: 4a4f 253c af72 543c fe65 183a 7848 debd
00000200: bdc2 7fbd e5e5 acbc 6a1f 933c 0998 aebc
00000210: 00cb 3739 34b2 fcbc eb78 8ebd 8251 70bd
00000220: 0b9d 433b ee57 94bd a3c6 b5bc 0e7a a03c
00000230: 3af4 ccbd 4787 88bc 0d77 ee3c bca2 cbbd
00000240: baeb 0f3c f10f 0cbd e3ae 21bd 9318 9ebd
00000250: 9509 f43c 1416 c7bc cfca b7bd bd4e e7bb
00000260: 7fa9 d8bc 0e32 acbc b926 3fbd 81e4 b9bd
00000270: b16b 22bd c387 f63d e56f f2bd a395 953b
00000280: d537 18bc 1893 7cbd bd51 ae3d c362 8ebd
00000290: 16af 273b f8d1 bf3d 9a74 563c f285 8cbd
000002a0: 804f bf3a 783a 253d eb65 fcbd 9d9d 6dbc
000002b0: 41a8 4b3c 339c 4abd 74be c0bd 901f a03c
000002c0: 35ce 1d3d 2304 fc3c 6a66 453c c2d4 f33c
000002d0: 5a37 e03c 074a 613c 5b5a e4bc 9d31 04bd
000002e0: ff3f 583d 1a63 57bd 0763 d2bc 3285 7bbd
000002f0: cf8f aebc 402f 44bd 8e35 72bc b38d 2fbc
00000300: 9554 bdbc 9626 78bd 9b1b 373c d282 60bc
00000310: 4ad7 a23c e2b2 023d 59d1 e4bc f598 70bd
00000320: ac52 49bd c87d 95bd 13c6 923d 5094 83bd
00000330: f23f 08bd e445 a6bd edd9 adbd 9979 1abd
00000340: 1125 6abd 1b42 e4bb 8643 cfbd b4a8 283d
00000350: 3456 f63c cd55 bdbc db55 bdbc aa54 5d3c
00000360: ab34 7abc 3e90 28bd 62d7 3cbd 218e 2bbd
00000370: c194 0fbd 0320 a9bc 8514 91bd f391 3abd
00000380: 6fba 7fba eb12 343b c085 adbd bc94 543a
00000390: 5c07 8abc a804 a6bb 54e2 d5bc dbd1 6bbc
000003a0: e808 533c c09e 2bbd 1ca3 e8bd c7d8 ccbd
000003b0: 519c 82bd b63b 83bd a279 69bd d0b4 253d
000003c0: 5e7f 343b 8fea 8b3c 3dd4 753d 118c 86bd
000003d0: e70e debc 83f6 a1bd 782d e9bb b19c 20bd
000003e0: f72e 333d 12bc 7cbd e1f7 c6bc 7e61 86bc
000003f0: 8392 98bd 89cf 5fbc 2d62 88bc 9dde 8ebd
-0.055847425 -0.035437178 -0.08780354 -0.028583266 -0.046016756 -0.013665756 -0.028738048 -0.06725011
-0.08171195 0.0059258924 0.03244156 -0.018151233 0.086373515 -0.034350954 -0.020556487 0.049017254
-0.012106875 0.049604073 0.06860368 0.018936725 0.0411469 0.054314535 -0.07307113 0.0029285713
0.018536491 0.037908137 -0.06635799 0.025939234 -0.018189503 0.017677914 -0.06240688 -0.030866833
0.011831043 0.018283838 0.0040367777 0.031651795 0.052531153 -0.01593253 -0.07075424 0.057222504
0.0370565 -0.14105177 -0.012964752 -0.093043976 -0.10831853 -0.041408543 -0.003428664 -0.05246149
-0.039334256 -0.009841354 -0.019066712 -0.0878226 -0.099680476 -0.064419046 -0.013913284 -0.05123781
0.044946957 0.045102235 0.047431335 -0.0067333654 -0.027495744 -0.016363982 0.0076728733 -0.08628856
-0.033883747 -0.005129903 -0.101057015 -0.05582085 -0.022506895 -0.06647154 -0.04219543 0.042182293
0.0029916607 -0.03684834 -0.057544168 -0.03721582 -0.050585978 -0.053164613 -0.0781272 0.01024119
-0.081123486 -0.08324259 0.039753452 -0.035325885 -0.06393678 -0.06409263 -0.0375259 -0.10411167
-0.041002482 -0.01668218 -0.01705973 -0.06112153 0.02844963 -0.026800359 0.09187426 0.019360386
-0.048461184 -0.013083942 -0.009292998 -0.11675186 -0.08605188 0.030580344 -0.016344037 0.03284274
0.11027635 -0.09518802 -0.11462967 -0.01557056 -0.00858446 -0.041112088 -0.018498285 -0.05819631
0.020936167 0.041025054 -0.0144837955 0.020677606 -0.0347761 0.051213507 0.012756424 0.05805806
0.09343998 0.09215949 -0.028260672 -0.01830262 0.010089705 0.012966796 0.0005813538 -0.10853666
-0.062441576 -0.021105716 0.017959315 -0.02131273 0.00017527863 -0.030846693 -0.06956657 -0.058671482
0.0029848244 -0.07243334 -0.022189444 0.01958945 -0.1000752 -0.016666068 0.029109502 -0.099431485
0.008784229 -0.03419489 -0.039473426 -0.07719531 0.029789725 -0.02430252 -0.089742295 -0.007058947
-0.02644801 -0.021019962 -0.04666779 -0.09076787 -0.039653484 0.12037613 -0.118377484 0.004564957
-0.009290655 -0.061663717 0.08511684 -0.06952431 0.0025586537 0.0936622 0.013089323 -0.068614855
0.0014595836 0.040338963 -0.12324127 -0.01450291 0.012430252 -0.04946537 -0.09411326 0.0195463
0.038526732 0.030763691 0.012048343 0.029764537 0.027370144 0.01375056 -0.027875116 -0.032273877
0.052795406 -0.052584745 -0.025681986 -0.06140632 -0.021308808 -0.047896624 -0.014783276 -0.010714936
-0.02311162 -0.060583673 0.011176015 -0.013703065 0.019878048 0.031908877 -0.027931856 -0.05873962
-0.049151108 -0.072993815 0.07166686 -0.06424773 -0.033264108 -0.08118799 -0.08488832 -0.03771362
-0.057164256 -0.006965888 -0.10120301 0.041176513 0.030070402 -0.023112202 -0.023112228 0.013508955
-0.015271346 -0.041153185 -0.046103843 -0.04188359 -0.035053972 -0.020645147 -0.07083992 -0.045549344
-0.0009755259 0.0027477096 -0.084727764 0.00081093214 -0.016849212 -0.005066473 -0.026108898 -0.014393295
0.012880541 -0.041899443 -0.11359236 -0.100022845 -0.06377471 -0.06407873 -0.057000764 0.04045564
0.0027541737 0.01707962 0.06001686 -0.06569684 -0.027106715 -0.079083465 -0.007116016 -0.039211933
0.04374596 -0.061702795 -0.02428812 -0.01640391 -0.0744982 -0.01366032 -0.016648376 -0.06976054

feature.layers_conv.6.bias f4 [32]
00000000: b13a 213d 7abb eabc 587d 85bd 7a98 873a
00000010: 4857 bb3b 3482 6bbd 5626 b5bc 8655 70bd
00000020: a064 aa3c 709f af3d 2920 163d 19ef 193c
00000030: 564f 283d 8ab9 6d3d 5f6f 8cbd 83f9 03bd
00000040: 7f11 b439 feec bf3c 75bf 32bc ec76 71bd
00000050: a904 743c c95a 99bc 4ba9 353d 5c9c 1dbd
00000060: 0438 8cbd 54c7 b3bb 454a 55bd 957f a1b9
00000070: 6865 a7bc b8d8 9c3d 52a7 8bbc 624c ca3d
0.039362613 -0.028653849 -0.06518048 0.0010345124 0.005717192 -0.05749722 -0.022113007 -0.05867531
0.020799935 0.08575332 0.036651764 0.009395384 0.041091286 0.058038272 -0.0685718 -0.032220375
0.0003434531 0.023428436 -0.010909905 -0.058951303 0.014893689 -0.018720048 0.044350903 -0.038479194
-0.06846622 -0.0054864082 -0.052072782 -0.0003080337 -0.020434096 0.07658523 -0.017047558 0.0987785
