Assignment 1 Submission Code/code/mnist-classifier/best-conv.pth (torch, 81245 bytes, 24 tensors)

layers.0.weight f4 [8, 1, 3, 3]
-0.24819626 -0.44063306 -0.40192324 0.5422322 -0.23280348 0.18375719 0.8138864 0.05700709
-0.05549482 0.6194889 0.1414576 -0.070789956 0.38620222 -0.18758851 -0.3720462 0.32767975
-0.086123906 -0.6437787 0.32199225 -0.09589227 -0.6413811 0.13562547 0.39042565 -0.19962525
0.18974853 0.78566885 -0.09756315 0.50606364 0.56115705 0.75593734 -0.2821445 0.24187003
0.21660934 -0.6394022 -0.60514057 -0.38664627 -0.35326546 0.07602144 0.009037766 -0.52202004
-0.059150305 0.7342414 -0.39972377 0.45658877 0.60205394 0.13204122 0.2358667 -0.04616961
0.16560623 0.2846457 0.007986039 0.21766701 -0.14378175 0.1144557 0.5098841 0.21981451
-0.3669911 -0.06790694 -0.3888208 0.11881564 0.24091959 -0.002243388 0.40634868 -0.13596308
0.44758755 0.07350739 0.33082995 -0.11875171 -0.22713217 0.6747911 0.03778773 -0.6628394
00000000: 2927 7ebe a89a e1be e2c8 cdbe bbcf 0a3f
00000010: 0964 6ebe d82a 3c3e dc5a 503f 4480 693d
00000020: 894e 63bd d396 1e3f 43da 103e 53fa 90bd
00000030: 4cbc c53e 3417 40be d77c bebe a4c5 a73e
00000040: bb61 b0bd aece 24bf 2bdc a43e 2b63 c4bd
00000050: 8d31 24bf 67e1 0a3e dfe5 c73e 906a 4cbe
00000060: 704d 423e 9821 493f 30cf c7bd 638d 013f
00000070: fda7 0f3f 1c85 413f 3e75 90be c7ac 773e
00000080: d7ce 5d3e ddaf 23bf 7eea 1abf 80f6 c5be
00000090: 36df b4be 21b1 9b3d 2313 143c 1ba3 05bf
000000a0: 9747 72bd 3ff7 3b3f 98a8 ccbe 01c6 e93e
000000b0: 3520 1a3f d035 073e 0a87 713e 581c 3dbd
000000c0: ae94 293e 15bd 913e e0d7 023c 1ae4 5e3e
000000d0: 863b 13be c067 ea3d c487 023f 0e17 613e
000000e0: 42e6 bbbe cb12 8bbd 8513 c7be 9d55 f33d
000000f0: a0b3 763e ce05 13bb ef0c d03e e839 0bbe
00000100: 322a e53e 0b8b 963d 8b62 a93e 1934 f3bd
00000110: 5695 68be 1cbf 2c3f 4fc7 1a3d d8af 29bf

layers.0.bias f4 [8]
0.22287506 -0.10575475 0.60403395 0.3635764 0.5217036 -0.26629388 0.04000275 0.15140912
00000000: 5c39 643e f295 d8bd f8a1 1a3f b026 ba3e
00000010: 5e8e 053f ac57 88be ecd9 233d fe0a 1b3e

layers.3.weight f4 [16, 8, 3, 3]
-0.24756522 -0.040997915 -0.11846922 -0.29683813 0.07292489 -0.2660995 -0.22698373 -0.028280932
-0.23174237 0.42889982 0.45332578 -0.07270518 0.4559734 0.45519596 -0.052487638 0.64036113
0.24956316 -0.40227333 -0.29639986 0.12933713 -0.24700896 -0.11508161 0.28491014 -0.28637972
0.2438094 0.21224032 -0.21309087 -0.40838507 0.016949447 0.30494112 -0.3700949 -0.16045494
0.04796651 -0.123303816 -0.33025265 -0.5517724 0.31450188 0.08128262 -0.34919497 0.5333566
-0.17031121 -0.38923505 0.29147184 -0.33477613 -0.13734215 -0.10496848 -0.03729794 0.0023369044
-0.03897693 0.0853147 -0.09229768 -0.016371295 0.10389482 -0.096872956 -0.9465445 -0.14890033
0.115082934 -0.13239484 -0.17757946 -0.012926494 -0.32214898 -0.009368152 0.28333604 0.21277948
0.48635265 0.1822276 0.48605376 0.6289372 -0.14894569 0.60258496 0.44417274 -0.40187007
0.18254152 0.48751515 0.5967832 0.15491861 0.16144486 0.14155939 -0.06119229 -0.06678633
0.04149052 -0.039661095 -0.24310851 -0.5328548 -0.084151834 -0.22234358 -0.11394653 -0.06757117
0.19738829 0.120378576 0.20058276 0.33980894 0.49015093 -0.06901045 0.051903203 0.28437302
-0.25926402 -0.12828995 0.060782272 0.27209556 0.020863226 -0.48496863 0.35802668 0.16572984
-0.10107545 -0.09550591 -0.35414448 -0.41669935 0.15469511 0.1286883 -0.22004522 -0.10329553
0.10173912 0.12889318 0.11649576 0.54100215 0.5296124 0.0233633 -0.019930273 0.05323728
0.09729206 0.05506935 0.10577657 -0.04983268 -0.009142958 0.024905927 0.009605826 -0.21127649
0.09982592 0.17394567 0.08177431 0.23198877 0.42325103 0.18519928 0.052583627 -0.021529032
-0.28774163 -0.2535893 0.14382234 -0.12372304 -0.07010343 0.095208965 0.23434034 0.3440951
0.32166862 0.17549862 0.28795025 -0.19357893 -0.16834553 -0.0945205 -0.11787625 -0.093055084
-0.24424398 -0.3635082 0.09463038 -0.15884596 -0.16489814 0.08637089 0.101796575 -0.43674597
-0.47138944 0.15334709 0.25863987 0.1608788 0.18083572 -0.064442486 -0.03498093 -0.13626388
-0.14223075 -0.062178776 -0.36364543 -0.3019052 -0.44392928 -0.3296999 0.4415161 0.36879286
0.5648361 0.00518331 0.14803204 0.27494666 0.09789834 0.23491584 0.31746435 -0.11789389
0.08051842 -0.11328118 -0.3695728 -0.37627634 -0.52440745 0.11368332 -0.063413024 0.03609743
0.06234186 0.050532065 0.11627012 -0.053374752 -0.05399891 -0.041703254 -0.14394583 -0.088643804
0.09721804 -0.08115644 -0.16274123 -0.14096755 -0.054403447 0.20290509 0.124944374 -0.2037895
0.06324023 -0.15244755 -0.29670808 -0.4643247 0.08366154 -0.5873393 -0.5521523 -0.25728482
-0.44766706 -0.38871825 -0.102353044 0.0114867175 0.12962195 -0.26995197 0.27842125 0.23252599
0.11662098 0.22982816 -0.13634418 0.06765113 -0.29830793 -0.41956252 -0.24016382 -0.03060765
-0.16587009 0.11380025 -0.12989016 -0.26108375 0.21893214 -0.035815794 -0.2736639 -0.09284791
0.08746468 0.10720545 -0.1323067 0.19357453 0.57034755 0.82224864 0.017633548 0.15510531
0.4851948 -0.27037743 -0.4665293 -0.12243387 -0.13035071 0.1554617 0.25962585 -0.27248868
00000000: bd81 7dbe 6eed 27bd fe9f f2bd 2bfb 97be
00000010: a559 953d 323e 88be 6c6e 68be 6aad e7bc
00000020: df4d 6dbe c298 db3e 511a e83e 74e6 94bd
00000030: 5875 e93e 720f e93e 47fd 56bd b5ee 233f
00000040: 7c8d 7f3e c5f6 cdbe b9c1 97be f470 043e
00000050: ebef 7cbe e8af ebbd bedf 913e 5da0 92be
00000060: 2ca9 793e 8755 593e 7e34 5abe d917 d1be
00000070: 91d9 8a3c 3e21 9c3e 147d bdbe 4d4e 24be
00000080: 8878 443d b686 fcbd e016 a9be f540 0dbf
00000090: 6406 a13e 8177 a63d afc9 b2be 0f8a 083f
000000a0: 1066 2ebe d149 c7be cc3b 953e c767 abbe
000000b0: 6ca3 0cbe b7f9 d6bd bac5 18bd c026 193b
000000c0: 46a6 1fbd 79b9 ae3d 9106 bdbd 181d 86bc
000000d0: cfc6 d43d 5465 c6bd be50 72bf 5479 18be
000000e0: 9ab0 eb3d 8392 07be 64d7 35be a5c9 53bc
000000f0: b6f0 a4be e17c 19bc 6c11 913e dde2 593e
00000100: 3703 f93e df99 3a3e 0adc f83e 0702 213f
00000110: 3885 18be 0243 1a3f 9c6a e33e eac1 cdbe
00000120: 2aec 3a3e 969b f93e c9c6 183f fca2 1e3e
00000130: cd51 253e f2f4 103e c4a4 7abd 45c7 88bd
00000140: f7f1 293d ac73 22bd 70f1 78be 2c69 08bf
00000150: cc57 acbd 09ae 63be cc5c e9bd c162 8abd
00000160: 2820 4a3e 0b89 f63d 9165 4d3e 70fb ad3e
00000170: 10f5 fa3e 5a55 8dbd 7498 543d 5799 913e
00000180: 41be 84be 715e 03be d5f6 783d 1c50 8b3e
00000190: 5be9 aa3c cf4d f8be 464f b73e 15b5 293e
000001a0: a500 cfbd 9a98 c3bd 6d52 b5be 9e59 d5be
000001b0: 6568 1e3e dec6 033e 8953 61be 9b8c d3bd
000001c0: 9a5c d03d 93fc 033e 5495 ee3d 1e7f 0a3f
000001d0: ae94 073f 6464 bf3c d044 a3bc 560f 5a3d
000001e0: 0f41 c73d 6690 613d 63a1 d83d 5a1d 4cbd
000001f0: 58cc 15bc 8407 cc3c c161 1d3c dd58 58be
00000200: 8871 cc3d d01e 323e 4a79 a73d 778e 6d3e
00000210: 5cb4 d83e e1a4 3d3e ee61 573d a75d b0bc
00000220: df52 93be 75d6 81be 2a46 133e 8162 fdbd
00000230: 6392 8fbd ebfc c23d eaf6 6f3e 3c2d b03e
00000240: c0b1 a43e e9b5 333e 376e 933e 8e39 46be
00000250: c562 2cbe f793 c1bd 1a69 f1bd aa93 bebd
00000260: 181b 7abe bf1d babe 93cd c13d 84a8 22be
00000270: 0fdb 28be 39e3 b03d b97a d03d 2b9d dfbe
00000280: f559 f1be 0507 1d3e 726c 843e 6abd 243e
00000290: 002d 393e 6cfa 83bd 2a48 0fbd c288 0bbe
000002a0: f0a4 11be 2caf 7ebd bc2f babe 5293 9abe
000002b0: b34a e3be 6dce a8be 660e e23e 6bd2 bc3e
000002c0: 1999 103f c1d8 a93b b695 173e cfc5 8c3e
000002d0: ed7e c83d c78d 703e b08a a23e 5a72 f1bd
000002e0: d7e6 a43d f7ff e7bd a538 bdbe 4ba7 c0be
000002f0: 913f 06bf cdd2 e83d b0de 81bd e6da 133d
00000300: 2e5a 7f3d b6fa 4e3d 071f ee3d 7c9f 5abd
00000310: f62d 5dbd 08d1 2abd 8966 13be e28a b5bd
00000320: 401a c73d 5935 a6bd a3a5 26be cc59 10be
00000330: 26d6 5ebd 5ac6 4f3e d6e2 ff3d 32ae 50be
00000340: 1884 813d 361b 1cbe 1fea 97be f8bb edbe
00000350: be56 ab3d de5b 16bf da59 0dbf d6ba 83be
00000360: 9e34 e5be 1406 c7be 799e d1bd c932 3c3c
00000370: 9ebb 043e 2537 8abe 3b8d 8e3e 4b1b 6e3e
00000380: fbd6 ee3d 1358 6b3e cf9d 0bbe ad8c 8a3d
00000390: d1bb 98be e6d0 d6be 81ed 75be e5bc fabc
000003a0: d9d9 29be 1b10 e93d ed01 05be c5ac 85be
000003b0: bf2f 603e 95b3 12bd ad1d 8cbe 0c27 bebd
000003c0: af20 b33d 888e db3d 687b 07be 6738 463e
000003d0: 4c02 123f e37e 523f 3b74 903c edd3 1e3e
000003e0: 746b f83e e96e 8abe eedc eebe 9cbe fabd
000003f0: a87a 05be 5a31 1f3e aeed 843e a383 8bbe

layers.3.bias f4 [16]
-0.122510776 -0.55853295 0.07204772 -0.11622067 -0.15826705 -0.34050733 0.060985256 -0.062864654
0.1409744 -0.21473256 0.25886285 -0.27870125 -0.25435796 0.16169868 -0.20385465 -0.20511417
00000000: eee6 fabd 04fc 0ebf c18d 933d 1a05 eebd
00000010: c210 22be fa56 aebe adcb 793d 2fbf 80bd
00000020: 985b 103e dae2 5bbe ac89 843e eeb1 8ebe
00000030: 353b 82be 5794 253e 46bf 50be 7309 52be

layers.6.weight f4 [32, 16, 3, 3]
-0.32099125 -0.12796727 -0.024782393 0.2313646 0.091220796 -0.08227067 0.43769988 0.04860314
0.031339273 0.06546908 -0.034081016 -0.15670286 0.17596343 -0.016342333 0.15900463 -0.005915583
-0.07209654 -0.09211798 0.14676933 0.18643509 -0.28100738 0.1294202 0.07694031 0.19555758
0.06897276 -0.04296157 0.1135482 -0.008816713 -0.41083747 -0.21457478 0.11345569 -0.08881511
-0.03146762 0.10668909 0.058227833 0.095513724 -0.2094072 -0.5744476 -0.36165938 -0.030250568
0.007621481 0.15556051 0.12954251 -0.006466974 0.04906255 0.0463326 0.07508889 0.15973537
0.11328231 -0.025670094 0.060089707 -0.01240744 -0.058867365 -0.06842447 0.39448225 0.08961601
0.1551788 0.3976642 0.06975837 -0.048277065 -0.56947064 -0.39106393 -0.21562491 -0.02763161
-0.081417106 -0.17736608 0.09573425 -0.067252465 0.054649726 -0.04406838 -0.43813953 -0.19524682
-0.10609405 -0.077642 0.084087126 0.0025483917 -0.16114293 0.109069705 -0.18231758 -0.026429364
0.07703666 -0.19351843 0.06882858 0.14574769 0.106378146 0.11849578 0.069997035 0.18399051
0.032151993 0.13485254 -0.3668175 -0.29381806 0.010212389 -0.24120796 -0.07478865 -0.18868005
0.44874296 0.20365843 0.16618827 -0.13124505 -0.19862586 0.043736313 0.29884458 0.14114954
0.013887565 -0.033406273 -0.10156321 -0.26913923 0.11236004 -0.076672055 0.062347688 0.06623048
-0.045200326 -0.088904515 -0.22324373 0.14805326 -0.1606563 0.00036803438 -0.07237571 -0.02910091
0.00016789309 0.033016317 0.09662738 -0.18272904 -0.22856827 -0.2314039 0.03022264 -0.14506352
-0.27733126 0.17134683 0.044098027 0.281112 -0.06856722 -0.354626 -0.37627527 0.07971011
-0.06920161 -0.115838 0.09264875 -0.01825506 0.109482594 -0.16458099 -0.056533996 0.0074743526
0.01125023 0.053362243 -0.096123144 -0.39814755 -0.08789847 -0.0046092058 0.18165402 -0.08806607
0.05168857 0.045729645 0.037509643 0.3551266 -0.15050352 -0.13789749 0.06690319 0.24160866
0.15249103 -0.11569637 0.121629596 -0.049906168 0.16792527 0.2055873 0.009907738 0.1631816
-0.11779609 0.05452755 -0.045270838 -0.048825536 -0.13772982 0.17581202 0.36079377 0.032352388
0.09255239 0.034808606 -0.09552016 -0.02645008 -0.040090315 -0.004385225 0.18285337 0.087772675
0.0047534886 0.09988393 0.012732019 0.16616865 -0.040475607 -0.16656749 -0.04700032 -0.14390261
-0.16104892 0.007641744 -0.047703136 -0.0055060596 0.120901935 0.058799814 -0.387242 -0.0681129
0.13431722 0.22875021 -0.12303529 -0.01610946 0.26703498 0.13492124 0.1635634 -0.040593084
-0.0038212629 0.002852064 0.30923986 0.19904079 -0.20330316 0.04622075 -0.019231725 0.021937905
0.12561397 -0.2904773 -0.2821391 0.11836155 -0.08729353 0.07560493 0.16256635 0.011891042
0.055931624 -0.033553354 -0.1789736 0.010260248 -0.029328955 -0.011757861 -0.09770812 -0.0007921414
-0.07503163 0.0070937667 0.10565809 -0.17856878 -0.6075622 -0.17299922 -0.09799779 0.14663224
-0.068674535 -0.062377032 -0.23579952 -0.16909112 0.048451696 -0.071481176 -0.115354955 -0.26138622
-0.11309932 -0.029570388 0.055000618 0.05544932 -0.28848726 0.08805016 -0.08107362 -0.055869475
00000000: f758 a4be da09 03be 7204 cbbc d7ea 6c3e
00000010: f8d1 ba3d 867d a8bd 331a e03e 1614 473d
00000020: 9c5d 003d a714 863d 8998 0bbd b776 20be
00000030: c22f 343e 5be0 85bc 1cd2 223e 82d7 c1bb
00000040: 5aa7 93bd 5aa8 bcbd b34a 163e d7e8 3e3e
00000050: 33e0 8fbe bb86 043e e292 9d3d 3f40 483e
00000060: 9741 8d3d 79f8 2fbd f58b e83d f973 10bc
00000070: 4a59 d2be 7eb9 5bbe 755b e83d b2e4 b5bd
00000080: 31e4 00bd cf7f da3d 4f80 6e3d b39c c33d
00000090: d76e 56be ff0e 13bf 6b2b b9be 0ad0 f7bc
000000a0: 9ebd f93b 414b 1f3e cba6 043e e9e8 d3bb
000000b0: d0f5 483d 41c7 3d3d 34c8 993d ab91 233e
000000c0: 8e00 e83d 174a d2bc a020 763d 9348 4bbc
000000d0: e81e 71bd 2122 8cbd 94f9 c93e 9988 b73d
000000e0: 31e7 1e3e a49a cb3e 7add 8e3d 2cbe 45bd
000000f0: d4c8 11bf 8839 c8be c7cc 5cbe b05b e2bc
00000100: 03be a6bd 749f 35be 5210 c43d a9bb 89bd
00000110: 64d8 5f3d 0c81 34bd d353 e0be c8ee 47be
00000120: d647 d9bd c502 9fbd df35 ac3d eb02 273b
00000130: a702 25be f05f df3d 76b1 3abe 6582 d8bc
00000140: 65c5 9d3d b229 46be 00f6 8c3d e23e 153e
00000150: c9dc d93d eaad f23d 9b5a 8f3d 0268 3c3e
00000160: cfb1 033d c916 0a3e 81cf bbbe 526f 96be
00000170: dd51 273c 38ff 76be cb2a 99bd 5835 41be
00000180: a3c1 e53e d68b 503e 422d 2a3e 1a65 06be
00000190: 9464 4bbe d924 333d 2802 993e 8189 103e
000001a0: ab88 633c 04d5 08bd 5f00 d0bd 9ecc 89be
000001b0: 051d e63d 3d06 9dbd 4a60 7f3d d9a3 873d
000001c0: fa23 39bd 9213 b6bd 019a 64be 469b 173e
000001d0: 1683 24be bdf4 c039 b739 94bd 0865 eebc
000001e0: 750c 3039 1e3c 073d 93e4 c53d 521d 3bbe
000001f0: cd0d 6abe 25f5 6cbe 7895 f73c 888b 14be
00000200: 5dfe 8dbe 8b75 2f3e 22a0 343d e9ed 8f3e
00000210: f86c 8cbd 8a91 b5be 27a7 c0be 0e3f a33d
00000220: 93b9 8dbd 793c edbd a1be bd3d a38b 95bc
00000230: 6938 e03d eb87 28be 3190 67bd 6aeb f43b
00000240: e252 383c 5e92 5a3d 36dc c4bd ffd9 cbbe
00000250: 1d04 b4bd d208 97bb 8303 3a3e fc5b b4bd
00000260: 65b7 533d 024f 3b3d b6a3 193d 27d3 b53e
00000270: 981d 1abe 0035 0dbe 8a04 893d 4368 773e
00000280: 9c26 1c3e 38f2 ecbd f018 f93d 696a 4cbd
00000290: 9af4 2b3e 7a85 523e 1154 223c 1419 273e
000002a0: 143f f1bd 4858 5f3d ea6d 39bd 49fd 47bd
000002b0: 0c09 0dbe 1108 343e f6b9 b83e f083 043d
000002c0: 1c8c bd3d 7893 0e3d 13a0 c3bd d7ad d8bc
000002d0: be35 24bd efb1 8fbb ea3d 3b3e 29c2 b33d
000002e0: 27c3 9b3b f28f cc3d f599 503c 1d28 2a3e
000002f0: c0c9 25bd ab90 2abe 6883 40bd 355b 13be
00000300: 02ea 24be 9867 fa3b 5d64 43bd 2d6c b4bb
00000310: 6f9b f73d 13d8 703d 9544 c6be c77e 8bbd
00000320: 748a 093e 7f3d 6a3e edf9 fbbd fcf7 83bc
00000330: cfb8 883e cb28 0a3e 2a7d 273e ef44 26bd
00000340: 276e 7abb b2e9 3a3b b054 9e3e 59d1 4b3e
00000350: b42e 50be f851 3d3d da8b 9dbc 1fb7 b33c
00000360: f3a0 003e 71b9 94be 8974 90be 8a67 f23d
00000370: f3c6 b2bd c2d6 9a3d cb77 263e a5d2 423c
00000380: 8f18 653d 3e6f 09bd db44 37be 991a 283c
00000390: 4743 f0bc 0ba4 40bc 321b c8bd b6a7 4fba
000003a0: 2faa 99bd d472 e83b 4563 d83d bcda 36be
000003b0: 3289 1bbf b526 31be 11b3 c8bd c326 163e
000003c0: 3ca5 8cbd 0f7f 7fbd 6e75 71be 3926 2dbe
000003d0: 4975 463d b964 92bd 383f ecbd 6ad4 85be
000003e0: 9ea0 e7bd 993d f2bc 5448 613d d31e 633d
000003f0: 9ab4 93be a453 b43d ed09 a6bd 64d7 64bd

layers.6.bias f4 [32]
0.07903793 0.002944586 -0.008331808 -0.0994557 0.06735761 -0.1963767 0.12044027 -0.05054926
-0.2062026 -0.091097355 -0.031547446 -0.084328 -0.0506634 0.028075512 -0.111166954 -0.026466485
-0.038325876 0.04763299 -0.04140722 0.08961191 -0.05025703 -0.07937177 -0.036044143 -0.100305475
-0.09876911 -0.07282115 -0.19155769 -0.030777236 0.109903924 -0.0212327 0.114721276 -0.06667776
00000000: a3de a13d f5f9 403b 2382 08bc 6eaf cbbd
00000010: c9f2 893d f916 49be 63a9 f63d be0c 4fbd
00000020: c626 53be 4091 babd e537 01bd 29b4 acbd
00000030: 6d84 4fbd 9efe e53c 80ab e3bd 3ed0 d8bc
00000040: 98fb 1cbd cf1a 433d 9e9a 29bd 7386 b73d
00000050: 51da 4dbd ab8d a2bd 06a3 13bd f56c cdbd
00000060: 7647 cabd 4123 95bd b327 44be 8b20 fcbc
00000070: 4f15 e13d 33f0 adbc fdf2 ea3d 598e 88bd

classifier.0.weight f4 [10, 32]
0.192928 0.025064886 0.16771193 0.22804596 -0.0005529799 -0.273763 0.2155454 0.09173185
0.22557822 -0.27195403 -0.29957613 -0.39194953 -0.31109092 0.11864061 -0.06415841 0.5103755
-0.37200138 -0.0678143 0.1270262 -0.04269881 -0.46366122 0.039214514 -0.065306425 -0.4791612
0.0036597524 0.0108768735 -0.019078787 0.035693333 0.3092874 0.09602723 0.15398328 -0.053170517
-0.03263428 -0.16309161 -0.64053446 -0.56204486 0.22407794 -0.34145606 0.3440374 -0.17185795
-0.1965903 0.07663768 0.22260408 -0.11759388 0.016941056 0.31223017 -0.2654602 -0.2074917
0.12759258 0.13532636 -0.23740478 0.16501544 0.15475789 -0.18112335 0.08566845 -0.36056834
-0.550551 -0.0058473484 -0.11502383 0.35043865 0.15352936 0.012619306 -0.08889326 0.188953
-0.035752248 0.22627532 -0.085095726 -0.1356786 -0.20281371 -0.1747534 -0.3490464 -0.13473329
0.29941747 -0.030465724 0.2913827 0.09527569 -0.2067022 -0.22552612 -0.12596643 0.26748142
-0.013493429 -0.2403551 0.084773086 0.21879634 -0.04408056 0.021955023 0.15228419 -0.40596262
0.21411574 0.31974024 -0.05722536 -0.14670913 -0.3605733 0.0094244955 -0.08701859 0.44259286
-0.24720518 0.1754626 -0.027122736 -0.087901466 -0.531228 0.24294284 0.012021818 -0.1417071
-0.07062496 0.4802105 0.0626058 -0.00481959 0.47320256 -0.4393028 -0.02651334 -0.249521
0.043913577 -0.023947196 0.07958266 -0.18019351 -0.093155116 -0.1269278 -0.098032445 -0.23458081
-0.1810971 0.22042534 -0.18005572 0.34402335 -0.4156613 -0.027527189 -0.12577264 -0.38951218
0.024186164 -0.46826267 -0.053729095 -0.27295572 0.26585552 0.12177915 -0.30284217 -0.00094839645
-0.035463203 -0.17522456 0.11629445 0.015439446 -0.26066488 0.016948784 0.17852618 0.09014833
0.27722967 -0.33628255 0.22867273 -0.2485006 0.11981608 -0.000387612 -0.1388795 0.13083456
-0.38960063 -0.5852666 0.3449517 0.029518174 -0.25538138 0.095016696 0.055466633 0.29342872
-0.17529719 0.18662363 0.012218562 -0.028049238 -0.28019854 -0.08024277 0.12887737 -0.009506114
-0.04107775 0.21297075 0.05361348 0.20194817 -0.0032869757 -0.24559315 0.35771438 -0.3561716
-0.41184506 0.46143836 -0.08241858 0.19480726 0.005248974 0.12930529 -0.03862421 -0.003522551
0.07901032 -0.31898522 -0.36037633 0.12433722 0.2853846 0.11057199 -0.023288859 0.03544491
-0.39283836 -0.06055745 0.34076408 -0.122833356 0.3845011 0.21618962 -0.07455575 0.076510035
0.12741858 -0.6502812 -0.38789326 -0.33415926 -0.21034269 0.19726202 0.120482616 -0.18228759
-0.23768558 0.1155811 0.12935027 0.499403 -0.42057398 0.003680652 -0.054826483 -0.14609714
0.32502922 -0.4132357 -0.60921925 -0.17483422 -0.15475982 0.12799002 0.4177264 -0.1007087
0.41259012 0.0740116 -0.18719414 0.23066105 -0.13230604 0.018931136 -0.3701198 -0.048689276
-0.0806525 0.08616799 0.15820915 -0.08718743 -0.4454609 0.24599221 0.16936068 -0.18632413
-0.07539529 -0.26058692 -0.62648445 -0.12392051 0.23348549 0.018358625 -0.13506812 -0.048790738
-0.3629286 0.1637824 0.22240935 -0.07649882 -0.21515723 -0.0269488 -0.5842404 -0.09664138
00000000: eb8e 453e e054 cd3c adbc 2b3e e184 693e
00000010: daf5 10ba aa2a 8cbe efb7 5c3e e8dd bb3d
00000020: fafd 663e 8f3d 8bbe 0b62 99be 9cad c8be
00000030: 4f47 9fbe d9f9 f23d 7c65 83bd f8a7 023f
00000040: f776 bebe 39e2 8abd 2813 023e f3e4 2ebd
00000050: 0165 edbe 669f 203d 60bf 85bd 9e54 f5be
00000060: 75d8 6f3b ea34 323c 1e4b 9cbc 2c33 123d
00000070: eb5a 9e3e eda9 c43d cbad 1d3e 54c9 59bd
00000080: 86ab 05bd 7d01 27be 11fa 23bf 2ce2 0fbf
00000090: b074 653e 54d3 aebe ac25 b03e 88fb 2fbe
000000a0: f84e 49be 37f4 9c3d 53f2 633e 0fd5 f0bd
000000b0: f8c7 8a3c a2dc 9f3e 66ea 87be b478 54be
000000c0: a1a7 023e fe92 0a3e 3d1a 73be cff9 283e
000000d0: da78 1e3e 6678 39be f172 af3d 6a9c b8be
000000e0: e9f0 0cbf 1d9b bfbb 9d91 ebbd b26c b33e
000000f0: cd36 1d3e 35c1 4e3c ab0d b6bd e57c 413e
00000100: f370 12bd b8b4 673e ab46 aebd 55ef 0abe
00000110: 66ae 4fbe 8ef2 32be 36b6 b2be 86f7 09be
00000120: 3f4d 993e 4193 f9bc 1d30 953e e71f c33d
00000130: bea9 53be 52f0 66be 58fd 00be 53f3 883e
00000140: 8b13 5dbc a61f 76be 839d ad3d 260c 603e
00000150: d18d 34bd 05db b33c 63f0 1b3e 55da cfbe
00000160: 2841 5b3e feb4 a33e 2465 6abd eb3a 16be
00000170: 109d b8be 3369 1a3c cd36 b2bd 889b e23e
00000180: 5b23 7dbe 78ac 333e 8030 debc af05 b4bd
00000190: 8ffe 07bf 02c6 783e 29f7 443c ab1b 11be
000001a0: d2a3 90bd 27de f53e 7837 803d a7ed 9dbb
000001b0: 9b47 f23e 4cec e0be 8132 d9bc 6f82 7fbe
000001c0: b9de 333d e92c c4bc 3cfc a23d a684 38be
000001d0: 1cc8 bebd 5cf9 01be 3cc5 c8bd f435 70be
000001e0: 8571 39be 2eb7 613e 8760 38be d423 b03e
000001f0: 8fd1 d4be b380 e1bc 8bca 00be 246e c7be
00000200: 1022 c63c 20c0 efbe 0a13 5cbd dac0 8bbe
00000210: 371e 883e 5967 f93d 210e 9bbe cf9d 78ba
00000220: dd41 11bd 116e 33be c92b ee3d bbf5 7c3c
00000230: de75 85be 2dd8 8a3c 91cf 363e b09f b83d
00000240: 0cf1 8d3e 3a2d acbe 2f29 6a3e f176 7ebe
00000250: 2262 f53d 6738 cbb9 6d36 0ebe 7ff9 053e
00000260: bc79 c7be 08d4 15bf 829d b03e 19d0 f13c
00000270: 59c1 82be 1d98 c23d fb30 633d 4a3c 963e
00000280: 1b81 33be 441a 3f3e 5d30 483c 84c7 e5bc
00000290: 2f76 8fbe 5256 a4bd 6ef8 033e 88bf 1bbc
000002a0: 2541 28bd 0115 5a3e cf99 5b3d 80cb 4e3e
000002b0: 4d6a 57bb c57c 7bbe 5726 b73e 205c b6be
000002c0: 5bdd d2be a641 ec3e 13cb a8bd 8e7b 473e
000002d0: 96ff ab3b 9b68 043e 6b34 1ebd 99da 66bb
000002e0: 2ad0 a13d 0852 a3be 3f83 b8be 83a4 fe3d
000002f0: ee1d 923e 9173 e23d 47c8 bebc af2e 113d
00000300: 1c22 c9be 170b 78bd a178 ae3e 0e90 fbbd
00000310: 54dd c43e d060 5d3e afb0 98bd 4bb1 9c3d
00000320: 047a 023e d478 26bf f299 c6be ec16 abbe
00000330: 1364 57be 0eff 493e 97bf f63d 99a9 3abe
00000340: d963 73be c9b5 ec3d 6674 043e c0b1 ff3e
00000350: 7955 d7be 1837 713b bc91 60bd 7d9a 15be
00000360: 3b6a a63e a193 d3be cbf5 1bbf be07 33be
00000370: 5c79 1ebe d10f 033e 3ce0 d53e 5d40 cebd
00000380: 033f d33e 6593 973d d2af 3fbe 6932 6c3e
00000390: 3c7b 07be 7815 9b3c 5880 bdbe 686e 47bd
000003a0: 232d a5bd d878 b03d 9401 223e 538f b2bd
000003b0: 7313 e4be 62e5 7b3e e36c 2d3e c1cb 3ebe
000003c0: d968 9abd a66b 85be 4961 20bf 09ca fdbd
000003d0: d216 6f3e d464 963c 4c4f 0abe ccd8 47bd
000003e0: c7d1 b9be 93b6 273e 47bf 633e 6aab 9cbd
000003f0: 2d52 5cbe bbc3 dcbc c790 15bf eaeb c5bd

classifier.0.bias f4 [10]
0.14638083 0.16703314 -0.17683105 0.08328177 -0.19617862 -0.13484733 -0.13308792 0.12842175
0.04707178 0.05881265
00000000: dbe4 153e bc0a 2b3e 3313 35be a28f aa3d
00000010: 0ce3 48be 6b15 0abe 3348 08be fe80 033e
00000020: 57ce 403d 89e5 703d

exp_avg f4 [8, 1, 3, 3]
-0.0025416184 0.0062715467 0.007592043 -0.005359132 0.002104126 0.015590575 -0.005161359 0.0016703233
0.017044522 0.0010827396 -0.008604607 -0.014630146 0.004852108 -0.007544706 -0.012137854 0.00022435928
-0.007240928 -0.013833801 0.01626171 0.025926117 0.023235794 0.014971112 0.011045375 0.0154322
0.008315412 0.009638588 0.013269264 0.013536602 0.0016157944 0.0067033703 0.016521163 0.010232016
0.012050017 0.014549927 0.004983781 0.0038960064 -0.019458182 -0.028688194 -0.034049623 -0.0030792793
-0.013143981 -0.026554206 -0.006054839 -0.007150041 -0.015198483 0.0 0.0 0.0
0.0 0.0 0.0 0.0 0.0 0.0 -0.00087795674 -0.00067138084
-0.0013321566 0.0017267182 0.0013950069 -0.0015469415 0.00037215318 -0.00052705576 -0.0027910518 0.0018830216
-0.0020282045 -0.014732489 0.00241805 -0.0031766659 -0.013094562 0.006659632 0.0032365234 -0.0036147311
00000000: 4891 26bb 8c81 cd3b acc6 f83b a89b afbb
00000010: 60e5 093b 9c6f 7f3c 9e20 a9bb c0ee da3a
00000020: f4a0 8b3c b6ea 8d3a 56fa 0cbc 48b3 6fbc
00000030: 6ffe 9e3b 9539 f7bb d9dd 46bc fc41 6b39
00000040: 4e45 edbb 2ba7 62bc 4737 853c 0263 d43c
00000050: fe58 be3c 6549 753c a9f7 343c 57d7 7c3c
00000060: 5e3d 083c 2beb 1d3c 5467 593c a0c8 5d3c
00000070: 10c9 d33a f2a7 db3b 6457 873c 30a4 273c
00000080: 6f6d 453c d162 6e3c fc4e a33b 2454 7f3b
00000090: c466 9fbc 8103 ebbc 9e77 0bbd bccd 49bb
000000a0: da59 57bc 3588 d9bc ac67 c6bb e44a eabb
000000b0: 0f03 79bc 0000 0000 0000 0000 0000 0000
000000c0: 0000 0000 0000 0000 0000 0000 0000 0000
000000d0: 0000 0000 0000 0000 ae26 66ba 9bff 2fba
000000e0: c29b aeba 0c53 e23a aad8 b63a bec2 caba
000000f0: 8e1d c339 1d2a 0aba 14ea 36bb b8cf f63a
00000100: a0eb 04bb 8a60 71bc 2678 1e3b 9c2f 50bb
00000110: 938a 56bc 0b39 da3b da1b 543b 20e5 6cbb

exp_avg_sq f4 [8, 1, 3, 3]
0.009695308 0.010732655 0.011170232 0.0047559426 0.006865642 0.0073224767 0.0027979263 0.0044877897
0.0068939812 0.00095060904 0.0028519558 0.0061697075 0.0014917897 0.0046734554 0.008345212 0.002594497
0.005777739 0.009142346 0.004813901 0.0060689105 0.008696219 0.0039704344 0.0033179258 0.0062977057
0.0031439106 0.0023776635 0.0054129614 0.014098187 0.009039715 0.008501515 0.022909181 0.016720532
0.017086903 0.033243462 0.030589923 0.027225334 0.012094295 0.009146193 0.0067117047 0.012637477
0.008359118 0.0049291374 0.01120931 0.006443225 0.00477184 0.0 0.0 0.0
0.0 0.0 0.0 0.0 0.0 0.0 0.00058943336 0.0012094284
0.0025159419 0.0010396583 0.0018391517 0.0013656437 0.00076838065 0.0009037396 0.0007055176 0.008239978
0.0052547976 0.009864574 0.004802557 0.010312983 0.018691393 0.0050691124 0.01385063 0.026169678
00000000: 12d9 1e3c 05d8 2f3c 5903 373c bdd7 9b3b
00000010: 2ef9 e03b 63f1 ef3b 6a5d 373b 4f0e 933b
00000020: e8e6 e13b 4b32 793a e1e7 3a3b 422b ca3b
00000030: 2888 c33a c923 993b 5bba 083c 7008 2a3b
00000040: 3053 bd3b c7c9 153c eebd 9d3b b6dd c63b
00000050: 967a 0e3c 6b1a 823b 8f71 593b fc5c ce3b
00000060: 110a 4e3b 93d2 1b3b 365f b13b 15fc 663c
00000070: 501b 143c f049 0b3c 09ac bb3c 7ff9 883c
00000080: d5f9 8b3c 4c2a 083d b897 fa3c aa07 df3c
00000090: 2627 463c ead9 153c dced db3b 6c0d 4f3c
000000a0: aff4 083c 9a84 a13b 41a7 373c b021 d33b
000000b0: 185d 9c3b 0000 0000 0000 0000 0000 0000
000000c0: 0000 0000 0000 0000 0000 0000 0000 0000
000000d0: 0000 0000 0000 0000 3484 1a3a af85 9e3a
000000e0: 80e2 243b 2545 883a b10f f13a 66ff b23a
000000f0: 276d 493a f0e8 6c3a 7cf2 383a f900 073c
00000100: 7030 ac3b 069f 213c c55e 9d3b c9f7 283c
00000110: b11e 993c cc1a a63b c1ed 623c cb61 d63c

exp_avg f4 [8]
-0.011479851 0.0125347385 -0.024800118 -0.01955569 0.025422875 0.0 -0.006335508 0.0098536825
00000000: fc15 3cbc 815e 4d3c 9e29 cbbc 4133 a0bc
00000010: a243 d03c 0000 0000 189a cfbb 5771 213c

exp_avg_sq f4 [8]
0.018633291 0.010913931 0.017159697 0.05036315 0.015959872 0.0 0.0052400115 0.036785483
00000000: d8a4 983c 58d0 323c 7e92 8c3c 9749 4e3d
00000010: 47be 823c 0000 0000 67b4 ab3b 60ac 163d

exp_avg f4 [16, 8, 3, 3]
-0.00015128712 -0.0021482576 -0.0015676224 -0.0018909518 1.506845e-05 0.00026859142 0.0006029521 0.0011500211
0.0001848803 0.0020597524 0.0026480607 0.0009283273 0.00027953243 -0.0005629519 0.00088469 0.00035054726
0.0014904446 0.001524288 0.002709995 0.00053013326 0.0013095638 -1.1664757e-05 0.0011067464 0.0026564307
0.0022686466 0.0018807678 0.001685802 0.0042399783 -0.0016681267 -0.0023284787 -0.0006189951 -0.003223753
-0.0026153654 -0.0010319413 0.00023412681 -0.00042906648 -0.0040775593 -0.0037192735 -0.0009698445 -0.0023750176
0.00012058264 -0.0013738122 0.0024927054 0.00057934737 -0.003672339 0.0 0.0 0.0
0.0 0.0 0.0 0.0 0.0 0.0 0.00085587404 5.384791e-05
-0.00013198677 0.00042067413 0.00015542615 0.00040400174 -0.0004095446 0.00020477924 -5.0037168e-05 0.0019602904
-1.674096e-06 0.0014768929 -0.0007111813 -0.00049429573 0.0014395076 0.0011719713 0.0024341713 0.00092667626
0.0037877907 -0.0005898186 -0.000878111 0.00075647974 -0.0030291306 -0.0027729648 0.0027430244 0.0031250855
0.0010019745 0.0019814563 -0.0020466167 -0.0014524822 0.005452043 -0.0013907033 -0.000765428 -0.0018387671
-0.0030378022 -0.0017541896 0.004923851 -0.00097065704 0.0018093372 -0.00026848732 -0.0049736267 -0.00090350443
0.0027949882 0.0022030827 -0.0006572174 0.00058390596 -0.0009913521 0.00018549775 0.005336403 0.0049988823
0.006791664 -0.0023581963 -0.00287135 0.0019581406 -0.00041495054 0.0003087123 0.001158435 -0.0020861938
-0.0011812286 0.0005523077 -0.00036003604 -0.0008450621 -0.0014100634 0.0 0.0 0.0
0.0 0.0 0.0 0.0 0.0 0.0 0.00045562763 0.00067584094
0.00012379327 -0.00019301113 -0.0005934935 -0.000586606 -0.00023158528 -0.0008339878 -0.0004395057 0.0039437716
-0.0011073976 -0.000895867 0.002884806 -0.0010463661 -0.0005021583 -0.0033480066 0.0004792576 0.0001541604
-0.0005127982 0.0026836034 0.0014168748 -0.0002663472 0.002533551 -0.00030806963 0.0020828643 -0.00043879662
-0.00020856474 0.0016680512 -0.00033787813 -0.0021049848 0.00050857273 0.0017113714 0.0028519253 0.0022956936
0.0018344285 0.00025431943 2.3659959e-05 0.0010960147 -0.0011322321 0.00010470968 0.0019240064 -0.0021130724
-0.0014100753 -0.0012901721 -0.0020015524 -0.0021963748 -0.0035942907 -0.002016063 0.002739823 0.0038146009
0.0036084184 0.0042434563 0.0030021113 -0.0012584598 -0.00018415593 0.00060772686 -0.0012139425 0.0033155987
0.0013227478 -0.001973363 -0.000133483 -0.002303646 -0.0009641716 0.0 0.0 0.0
0.0 0.0 0.0 0.0 0.0 0.0 0.0013906719 0.0002434123
0.0003814415 0.00015215347 -0.00010511607 -0.00040752877 0.00018080382 -0.00016196907 -6.444886e-05 0.0015724516
0.0008969215 0.00052172557 0.00040890474 0.001147208 0.002093505 0.0022652978 -0.00035594517 -0.0016273329
7.6235156e-06 0.0002398037 -0.0027120975 -0.0042659566 -0.004032556 -0.0014724998 -0.00066359056 -0.0012622706
-0.0014707118 0.0011827309 0.0021290812 -0.0004034582 0.0012533189 -0.0019391 -0.0017392815 -0.0021167144
-0.0014772278 -0.0010788527 -0.0006807162 -0.0026956585 -0.004775069 -0.0037508472 -0.0028264576 -0.0015363506
-0.0013024645 -0.002738357 -0.0016091558 0.0023736814 -0.0022037355 -0.006656898 -0.00092596177 -0.006851556
-0.0055785575 -0.0028513481 -0.00010450912 -0.00032288965 0.0006238476 -0.0074053584 -0.0048003746 -0.002381518
00000000: d4a2 1eb9 c8c9 0cbb ae78 cdba d0d9 f7ba
00000010: 80ce 7c37 bbd1 8c39 6e0f 1e3a 4ebc 963a
00000020: 6ddc 4139 e9fc 063b 168b 2d3b fe5a 733a
00000030: 358e 9239 1093 13ba 8aea 673a a8c9 b739
00000040: 065b c33a 9eca c73a 2c9a 313b a4f8 0a3a
00000050: aba5 ab3a c0b3 43b7 3f10 913a 8317 2e3b
00000060: 93ad 143b 1884 f63a 21f6 dc3a 84ef 8a3b
00000070: 0ba5 daba 6499 18bb 0f44 22ba 9a45 53bb
00000080: 8d66 2bbb 3442 87ba f07f 7539 54f4 e0b9
00000090: 0c9d 85bb 0ebf 73bb 2a3d 7eba 2fa6 1bbb
000000a0: 50e1 fc38 7d11 b4ba a85c 233b 58df 173a
000000b0: a0ab 70bb 0000 0000 0000 0000 0000 0000
000000c0: 0000 0000 0000 0000 0000 0000 0000 0000
000000d0: 0000 0000 0000 0000 bc5c 603a c1da 6138
000000e0: ee65 0ab9 ed8d dc39 e4f9 2239 32d0 d339
000000f0: 25b8 d6b9 02ba 5639 00df 51b8 3778 003b
00000100: 80b1 e0b5 4d94 c13a 926e 3aba a093 01ba
00000110: dcad bc3a d59c 993a 9e86 1f3b 31ec 723a
00000120: 953c 783b 0e9e 1aba 0831 66ba 7f4e 463a
00000130: 6184 46bb a1ba 35bb 50c4 333b 3cce 4c3b
00000140: af54 833a 52db 013b 8820 06bb 3761 beba
00000150: 0da7 b23b 4248 b6ba 01a7 48ba c902 f1ba
00000160: dd15 47bb d6ec e5ba 4258 a13b b173 7eba
00000170: 4827 ed3a c2c3 8cb9 cef9 a2bb 28d9 6cba
00000180: 1f2c 373b 9861 103b 1d49 2cba 4411 193a
00000190: 42f0 81ba 2c82 4239 fedc ae3b aacd a33b
000001a0: 9b8c de3b f88b 1abb 422d 3cbb 2654 003b
000001b0: b88d d9b9 aada a139 a1d6 973a 86b8 08bb
000001c0: 74d3 9aba bec8 103a 38c3 bcb9 2887 5dba
000001d0: e0d1 b8ba 0000 0000 0000 0000 0000 0000
000001e0: 0000 0000 0000 0000 0000 0000 0000 0000
000001f0: 0000 0000 0000 0000 4ee1 ee39 eb2a 313a
00000200: 81ce 0139 0863 4ab9 ad94 1bba 76c6 19ba
00000210: b3d5 72b9 f99f 5aba 756d e6b9 c13a 813b
00000220: 1926 91ba 9ed8 6aba 030f 3d3b 3826 89ba
00000230: 46a3 03ba 3b6a 5bbb de44 fb39 1ea6 2139
00000240: 4e6d 06ba 65df 2f3b 6eb6 b93a 84a4 8bb9
00000250: ef09 263b 6884 a1b9 aa80 083b 490e e6b9
00000260: 2cb2 5ab9 83a2 da3a 3c25 b1b9 c9f3 09bb
00000270: bd51 053a 1850 e03a 5ee7 3a3b 5973 163b
00000280: 3571 f03a 2d56 8539 6079 c637 27a8 8f3a
00000290: 6867 94ba 9597 db38 f12e fc3a 797b 0abb
000002a0: 47d2 b8ba fe1a a9ba 7a2c 03bb 0ef1 0fbb
000002b0: 318e 6bbb ed1f 04bb 9a8e 333b 62fe 793b
000002c0: 377b 6c3b b10c 8b3b 12bf 443b e7f2 a4ba
000002d0: fb19 41b9 dc4f 1f3a 271d 9fba 844a 593b
000002e0: 0d60 ad3a 8a53 01bb 92f7 0bb9 c4f8 16bb
000002f0: 76c0 7cba 0000 0000 0000 0000 0000 0000
00000300: 0000 0000 0000 0000 0000 0000 0000 0000
00000310: 0000 0000 0000 0000 3547 b63a 7e3c 7f39
00000320: 36fc c739 638b 1f39 c371 dcb8 96a9 d5b9
00000330: 2896 3d39 3ed6 29b9 b828 87b8 b81a ce3a
00000340: 621f 6b3a 69c4 083a 4462 d639 ea5d 963a
00000350: 3033 093b 6475 143b 279e bab9 3b4c d5ba
00000360: 80cd ff36 d173 7b39 72bd 31bb 70c9 8bbb
00000370: 8823 84bb e500 c1ba cff4 2dba c672 a5ba
00000380: e6c4 c0ba dd05 9b3a 0e88 0b3b 3e87 d3b9
00000390: 6746 a43a 6629 feba 9af8 e3ba 93b8 0abb
000003a0: 8a9f c1ba 4a68 8dba 1772 32ba a5a9 30bb
000003b0: 2f78 9cbb c6d0 75bb 173c 39bb 5f5f c9ba
000003c0: 75b7 aaba 0276 33bb 4fea d2ba c48f 1b3b
000003d0: 8c6c 10bb 1c22 dabb 3ebc 72ba 0483 e0bb
000003e0: 55cc b6bb afdd 3abb e82b dbb8 8449 a9b9
000003f0: b489 233a a6a8 f2bb 764c 9dbb 3e13 1cbb

exp_avg_sq f4 [16, 8, 3, 3]
0.00016558243 0.00026302395 0.00015952911 0.00021086911 0.00026465039 8.084498e-05 0.00019033147 0.00030334605
0.00016951317 6.97762e-05 0.00025777429 0.0002501642 0.00014887047 0.0003734342 0.00014623173 0.00023989486
0.00025182983 3.9937302e-05 0.00021519107 0.00034432873 0.00018637729 0.0003160424 0.00032646972 6.3905e-05
0.0003679662 0.00037906613 0.00011750621 0.00042624204 0.0008155716 0.0012630769 0.0005308505 0.00063114724
0.0005403066 0.00057803077 0.00027173213 9.42192e-05 0.0009900933 0.0005637134 0.00017665072 0.0008336787
0.00012776951 0.000115097115 0.0005491773 0.00010532798 0.0002708881 0.0 0.0 0.0
0.0 0.0 0.0 0.0 0.0 0.0 4.2338434e-06 4.880188e-06
7.9896745e-06 4.6843816e-06 9.870985e-06 4.5591e-06 8.90801e-06 1.5003959e-05 4.2174465e-06 8.827978e-05
0.00028546952 0.00019141627 0.00019634272 0.00031975008 6.2434934e-05 0.00022283675 0.00015643805 2.7172917e-05
0.00029160926 0.00043992553 0.00042509913 0.00013668592 0.00016639841 0.00027153903 0.00015891269 0.00021003047
0.00027033838 7.3098505e-05 0.00010721794 0.0001226754 0.00011421647 0.00012595164 0.00019267974 8.8546134e-05
0.00011701539 0.00021233034 0.00033653819 0.0004775791 0.00036082978 0.00018134163 0.00031092914 0.00037813024
0.00020635684 0.00029888755 0.00033550273 0.00041239063 0.00027026332 0.00012230212 0.0007637859 0.0007406475
0.00043930518 0.00034279944 0.00033530782 0.00033887886 0.0006104847 0.00043196356 0.00026956602 0.000444399
0.0004666978 0.00033498483 0.00054413575 0.0006051146 0.0003356434 0.0 0.0 0.0
0.0 0.0 0.0 0.0 0.0 0.0 6.9626426e-06 1.1152967e-05
6.2204135e-06 4.5026018e-06 7.911307e-06 8.177472e-06 9.0942885e-06 6.846837e-06 7.035153e-06 8.271296e-05
0.000101790974 0.00012324819 0.00011226277 0.00010320765 0.00014537331 7.923935e-05 0.0001255728 0.00019807999
0.00041111768 0.00063456455 0.00076553976 0.00013018714 0.00012344678 0.00021937481 8.612489e-05 5.137414e-05
7.472293e-05 3.419129e-05 5.8587422e-05 9.834624e-05 0.00010476259 0.00013453563 0.00021358681 0.0001057159
8.063291e-05 0.00012231487 0.00040321282 0.0006212148 0.0007030262 0.00013350528 0.00021453675 0.0003928014
8.1087266e-05 7.061024e-05 0.00014914932 0.00035043916 0.00029688067 0.00033398462 0.0014168358 0.0019777291
0.0018436497 0.0006221424 0.00093966676 0.0010656359 0.00086140545 0.0010585464 0.00094969495 0.0004691579
0.000620151 0.0005750838 0.00017728285 0.00032972082 0.00049676467 0.0 0.0 0.0
0.0 0.0 0.0 0.0 0.0 0.0 1.0455319e-05 1.4499058e-05
1.1551446e-05 2.059511e-06 5.051341e-06 7.924571e-06 2.9924577e-06 2.1225956e-06 5.7095963e-06 4.155579e-05
8.862488e-05 0.0001565253 0.000105617786 0.00010044946 0.00016981475 7.290621e-05 5.6446646e-05 8.518747e-05
0.00010409262 8.585906e-05 0.0002344145 0.000113639726 8.267575e-05 0.00012468321 0.0003514165 0.00052503566
0.00063609506 0.00013581755 9.33934e-05 0.00015146473 0.00011945612 5.627315e-05 0.00012449702 5.7123892e-05
4.5656256e-05 0.00015809482 0.000110012894 0.00011109937 0.00050012843 0.00011536797 6.816364e-05 0.00030852325
0.00033896085 0.00044425653 0.0006183856 0.000762231 0.0013740605 0.0014687525 0.0003849633 0.0007204436
0.0013033847 0.00011021885 0.00013867547 0.00057119626 0.000292876 0.0008907467 0.0015736488 0.00020105095
00000000: 32a0 2d39 7ae6 8939 4547 2739 bf1c 5d39
00000010: c6c0 8a39 518b a938 b793 4739 6b0a 9f39
00000020: 58bf 3139 d054 9238 e125 8739 7828 8339
00000030: 1d1a 1c39 7dc9 c339 c855 1939 498c 7b39
00000040: 0708 8439 5a82 2738 eaa4 6139 0587 b439
00000050: 466e 4339 7eb2 a539 062a ab39 bc04 8638
00000060: 96eb c039 65bd c639 ab6d f638 3d79 df39
00000070: 15cc 553a d48d a53a c628 0b3a 9373 253a
00000080: 5da3 0d3a fd86 173a 4577 8e39 8c97 c538
00000090: 05c6 813a 2ac6 133a 513b 3939 3b8b 5a3a
000000a0: def9 0539 4b60 f138 aaf6 0f3a 87e3 dc38
000000b0: fc05 8e39 0000 0000 0000 0000 0000 0000
000000c0: 0000 0000 0000 0000 0000 0000 0000 0000
000000d0: 0000 0000 0000 0000 7010 8e36 7fc0 a336
000000e0: 640b 0637 882e 9d36 8f9b 2537 5ffa 9836
000000f0: 9d73 1537 83b9 7b37 9783 8d36 d922 b938
00000100: 12ab 9539 eab6 4839 59e1 4d39 21a4 a739
00000110: 80ef 8238 49a9 6939 8509 2439 65f1 e337
00000120: 22e3 9839 cea5 e639 d7df de39 5953 0f39
00000130: 3c7b 2e39 5a5d 8e39 cda1 2639 a03b 5c39
00000140: 34bc 8d39 764c 9938 31da e038 6da2 0039
00000150: 8087 ef38 e311 0439 130a 4a39 d8b1 b938
00000160: 2966 f538 fea4 5e39 6471 b039 9563 fa39
00000170: c12d bd39 8626 3e39 3404 a339 c83f c639
00000180: 7e61 5839 02b4 9c39 6ae6 af39 2236 d839
00000190: 21b2 8d39 3a3e 0039 ce38 483a 0328 423a
000001a0: 8b52 e639 c3b9 b339 41cc af39 8dab b139
000001b0: ef08 203a 2b79 e239 8a54 8d39 39fe e839
000001c0: 1eaf f439 e7a0 af39 55a4 0e3a 8ea0 1e3a
000001d0: 4bf9 af39 0000 0000 0000 0000 0000 0000
000001e0: 0000 0000 0000 0000 0000 0000 0000 0000
000001f0: 0000 0000 0000 0000 a5a0 e936 a11d 3b37
00000200: f2b8 d036 0e15 9736 ceba 0437 fa31 0937
00000210: ac93 1837 e2bd e536 810f ec36 2f76 ad38
00000220: 9d78 d538 2f3c 0139 9e6e eb38 2f71 d838
00000230: 5a6f 1839 4d2d a638 31ac 0339 b1b3 4f39
00000240: 488b d739 e858 263a 81ae 483a d882 0839
00000250: 7e71 0139 fa07 6639 f39d b438 907a 5738
00000260: 91b4 9c38 9e68 0f38 c4bb 7538 3c3f ce38
00000270: fdb3 db38 2212 0d39 46f6 5f39 cbb3 dd38
00000280: 7719 a938 a641 0039 4f66 d339 05d9 223a
00000290: 4a4b 383a 8dfd 0b39 45f5 6039 e9f0 cd39
000002a0: 650d aa38 9514 9438 f764 1c39 26bb b739
000002b0: a6a6 9b39 a81a af39 1fb5 b93a ca9c 013b
000002c0: 9ea6 f13a 4517 233a f853 763a cfac 8b3a
000002d0: f1cf 613a ecbe 8a3a f3f4 783a 4ff9 f539
000002e0: a191 223a 38c1 163a 01e5 3939 61de ac39
000002f0: 5039 023a 0000 0000 0000 0000 0000 0000
00000300: 0000 0000 0000 0000 0000 0000 0000 0000
00000310: 0000 0000 0000 0000 4169 2f37 fb40 7337
00000320: 15cd 4137 2136 0a36 b07e a936 c6f3 0437
00000330: 08d2 4836 ea71 0e36 0f95 bf36 314c 2e38
00000340: 1fdc b938 f120 2439 1e7f dd38 65a8 d238
00000350: 4d10 3239 39e5 9838 20c1 6c38 ada6 b238
00000360: 4d4c da38 3b0f b438 2acd 7539 dd51 ee38
00000370: 3562 ad38 65bd 0239 533e b839 8ca2 093a
00000380: 9ebf 263a 3f6a 0e39 33dc c338 81d2 1e39
00000390: 8484 fa38 d606 6c38 6a8b 0239 5098 6f38
000003a0: 087f 3f38 41c6 2539 b9b6 e638 05fe e838
000003b0: 0d1b 033a b5f1 f138 13f3 8e38 4ac1 a139
000003c0: 8eb6 b139 1aeb e839 281b 223a 75d0 473a
000003d0: d219 b43a 2883 c03a e6d4 c939 27dc 3c3a
000003e0: 55d6 aa3a 4b25 e738 6a69 1139 55bc 153a
000003f0: 278d 9939 0081 693a e442 ce3a 34d1 5239

exp_avg f4 [16]
-0.0007839055 0.001428784 0.0035124063 -0.0065565123 -0.004916153 -0.0062264455 -0.0094737075 -0.007847721
-0.0015767759 0.002971854 0.0050217127 -0.0047395215 -0.0065461416 0.0032360915 0.008954932 -0.009101112
00000000: 027f 4dba 0946 bb3a 6630 663b 03d8 d6bb
00000010: ae17 a1bb 3607 ccbb 9c37 1bbc ba93 00bc
00000020: d2ab ceba 70c3 423b 2e8d a43b fd4d 9bbb
00000030: 0481 d6bb 9b14 543b b5b7 123c d51c 15bc

exp_avg_sq f4 [16]
0.0011729192 0.000875958 0.0017800975 0.002311215 0.0012131553 0.002965633 0.0022965595 0.0006015613
0.0016320476 0.0003942363 0.0025946186 0.00068107125 0.0013886698 0.0011939595 0.00032121578 0.00091165584
00000000: a3bc 993a 8ca0 653a 2952 e93a c177 173b
00000010: bd02 9f3a 115b 423b e081 163b 18b2 1d3a
00000020: 6eea d53a 80b1 ce39 7a0a 2a3b eb89 323a
00000030: 0704 b63a a27e 9c3a da68 a839 30fc 6e3a

exp_avg f4 [32, 16, 3, 3]
0.0017002093 0.0025381416 0.00068948313 -0.0054545035 -0.005184616 0.0011059111 -0.0066645956 0.0017607227
0.00300371 0.00092198385 0.0011116961 -0.0059087784 0.0009416966 0.004365575 -0.0010508468 0.0013258669
0.00401008 0.0015641476 0.0007700964 -0.0021978042 -0.0037879173 0.0026872396 0.002070315 0.0005154484
0.00058585557 0.00024566226 0.00042004004 0.0032255917 0.0006784852 0.00036361517 0.0004391474 -0.00063339353
-0.00499942 0.0036456329 0.0026285595 -0.0020122256 0.0013726667 -0.0026162018 -0.004831902 0.0022948694
-0.001466539 -0.0035552718 0.0031684218 0.0016351684 -0.00046418712 0.0027246769 0.002532746 0.00062551233
0.0014861971 0.001966003 0.0025806641 -0.0022215168 0.00088010187 0.00158503 0.00058057136 -0.0005259996
-0.005385604 0.0017067303 0.0056420495 0.00595731 0.0020341221 -0.00045922986 -0.0015659975 -0.001467049
-0.0038727743 -0.0032851382 0.0011854372 -0.0005800853 -9.453416e-05 -0.0007615092 9.265692e-06 -0.00096475147
-0.0018577634 -0.0008693382 -0.00061721227 -0.0028049017 7.658446e-05 -0.0035793243 0.0010465112 0.0006859052
-0.003501941 0.0011038593 0.00054947205 -0.00021139593 0.0016564337 0.0020682286 0.000751717 -0.0010311211
0.001706151 0.0013442693 -0.0014009409 0.0010471718 0.00085853087 -0.00029865283 -0.0007546373 -0.00044944836
-0.001599631 -0.0011633199 4.96835e-05 0.0002640137 -0.0015313241 -0.0029049246 0.0026429393 0.0013152054
0.002402271 -0.0016639363 0.00044851087 0.0017408321 0.0007116403 -0.0019591786 -0.0010125972 0.0014341848
0.0025059143 -0.0028125301 0.0026130513 -0.00079006917 0.0005358772 -0.00164724 -0.0042047296 -0.0002829631
-0.0046014385 -0.00044872746 -0.001798131 -0.00028182598 0.00068758614 -0.002635509 3.5625882e-05 -0.0031394437
-0.0037552083 0.0022634573 0.0009198663 0.00064976653 0.0007142818 0.0004700102 1.9429499e-05 0.00016928533
0.0013715812 -0.00503281 0.0037479245 0.004459401 0.0012692749 0.0014129954 0.0024199786 0.0013006888
-0.00061635475 0.0021204054 0.0009882975 0.0008305929 0.0035230948 0.0060702516 0.0018831666 0.0017107467
-0.0003922542 0.00029105405 0.00032313092 -0.0083810575 -0.0014479968 0.0017780741 -0.001392477 0.00043299806
-0.00046115942 -0.0011409089 -0.0019710683 -0.004725413 -0.0014948659 -0.0021557733 -0.0020491644 0.00025866728
-7.355416e-05 7.9557234e-05 4.9451806e-05 0.0012840786 -0.00140179 0.00043730743 -0.003508042 -0.002873618
-0.0057928003 -0.0011108944 -0.00090812636 -0.000905257 0.0013582648 -0.0002322271 -0.00253207 -0.003858892
-0.003753898 -0.0038783732 6.4222026e-05 -0.00025386797 0.0009614742 -0.0015101577 -0.0008771117 -0.0008300566
0.0013443475 0.0017594808 -0.001907899 0.003837323 0.0015647024 -0.0011124301 -0.003516455 -0.0019283106
-0.00034720666 0.0017413229 -0.002347401 -0.0009333847 0.0017632449 -0.0015638415 0.00090222614 0.0002387857
-0.004632968 -2.9222767e-05 0.00029855262 -0.00081964326 -0.0003088623 0.0020580997 0.00094741443 -0.004981278
0.00014256108 -0.0025765973 -0.0009290546 -0.0013839011 -0.0015722313 -0.0061809835 -0.0012095207 -0.00423234
-0.00297534 -0.0039999946 0.0012260046 -0.002878007 -0.001371646 0.0005233198 -0.0017686917 -0.0013614637
-0.00030834088 -0.0011273838 -8.025793e-05 0.0004680767 -0.002399232 0.0005136829 -0.0010973165 -0.0024616625
-0.000279716 -0.002062898 0.0020122195 -0.00074858125 -0.0007536112 -0.00083821855 6.288149e-05 -0.0010505276
0.0005352432 0.0029640796 0.0006525562 -0.0002754263 -0.0019040587 -0.002215323 0.0010378008 0.0010351622
00000000: 8fd9 de3a f356 263b 6ebe 343a b1bb b2bb
00000010: b6e3 a9bb 38f4 903a ae62 dabb 0dc8 e63a
00000020: e4d9 443b 4ab1 713a 55b6 913a 6d9e c1bb
00000030: 30dc 763a 190d 8f3b 91bc 89ba b6c8 ad3a
00000040: fd66 833b 1604 cd3a 4be0 493a 0909 10bb
00000050: b53e 78bb 661c 303b 1fae 073b 281f 073a
00000060: 1a94 193a 3bcc 8039 d238 dc39 7364 533b
00000070: 5fdc 313a 9aa3 be39 5e3d e639 520a 26ba
00000080: 2dd2 a3bb 92eb 6e3b e943 2c3b 8bdf 03bb
00000090: 0deb b33a 9574 2bbb ef54 9ebb 8565 163b
000000a0: e238 c0ba 90ff 68bb 4ca5 4f3b 2653 d63a
000000b0: 245e f3b9 7e90 323b 6dfc 253b 6cf9 233a
000000c0: 80cc c23a 0fd8 003b 5c20 293b de96 11bb
000000d0: a3b6 663a c8c0 cf3a 7c31 183a 3ce3 09ba
000000e0: b979 b0bb 5eb4 df3a f1e0 b83b 8a35 c33b
000000f0: e84e 053b cac4 f0b9 2842 cdba ff49 c0ba
00000100: 5fce 7dbb 794b 57bb ac60 9b3a de10 18ba
00000110: a440 c6b8 04a0 47ba d873 1b37 60e7 7cba
00000120: 3280 f3ba 4de4 63ba 6acc 21ba 71d2 37bb
00000130: f89b a038 1993 6abb 172b 893a 52ce 333a
00000140: d280 65bb 5faf 903a 720a 103a 2aaa 5db9
00000150: b11c d93a 1e8b 073b e00e 453a af26 87ba
00000160: eda0 df3a 3132 b03a c79f b7ba 4141 893a
00000170: 080f 613a 8194 9cb9 dad2 45ba f0a3 ebb9
00000180: b6aa d1ba 8a7a 98ba 4063 5038 526b 8a39
00000190: b6b6 c8ba 8c60 3ebb 2a35 2d3b f862 ac3a
000001a0: 6b6f 1d3b 7018 daba 1c26 eb39 a22c e43a
000001b0: 5f8d 3a3a 9065 00bb 20b9 84ba 42fb bb3a
000001c0: 443a 243b 6d52 38bb ba3f 2b3b a51c 4fba
000001d0: 1c7a 0c3a 34e8 d7ba d4c7 89bb aa5a 94b9
000001e0: aac7 96bb 2e43 ebb9 44af ebba 0bc2 93b9
000001f0: 203f 343a 81b8 2cbb 006d 1538 20bf 4dbb
00000200: f119 76bb 8356 143b 2f23 713a 1855 2a3a
00000210: a43e 3b3a b46b f639 88fc a237 2f82 3139
00000220: a1c6 b33a 45ea a4bb bd9f 753b 2b20 923b
00000230: cc5d a63a 4234 b93a 8198 1e3b e07b aa3a
00000240: de92 21ba 80f6 0a3b c389 813a 25bc 593a
00000250: b9e3 663b f6e8 c63b 96d4 f63a 223b e03a
00000260: 78a7 cdb9 9d98 9839 e669 a939 b450 09bc
00000270: b6ca bdba 440e e93a c683 b6ba 0404 e339
00000280: c5c7 f1b9 8d8a 95ba 0a2d 01bb a3d7 9abb
00000290: 60ef c3ba e047 0dbb 464b 06bb bc9d 8739
000002a0: 1741 9ab8 f7d7 a638 796a 4f38 874e a83a
000002b0: 44bc b7ba 6946 e539 2ee7 65bb 4f53 3cbb
000002c0: 88d1 bdbb 6e9b 91ba 540f 6eba c54e 6dba
000002d0: ce07 b23a fd81 73b9 16f1 25bb 77e5 7cbb
000002e0: f503 76bb 4e2c 7ebb f0ae 8638 9519 85b9
000002f0: 710b 7c3a 7cf0 c5ba f8ed 65ba 2898 59ba
00000300: d134 b03a 619e e63a 7812 faba 997b 7b3b
00000310: b316 cd3a f6ce 91ba 5374 66bb 5ebf fcba
00000320: 4a09 b6b9 1a3d e43a dbd6 19bb 63ae 74ba
00000330: ae1c e73a d0f9 ccba 5f83 6c3a 8c62 7a39
00000340: 27d0 97bb 6a23 f5b7 0e87 9c39 54dd 56ba
00000350: ccee a1b9 2fe1 063b e85b 783a fd39 a3bb
00000360: 737c 1539 21dc 28bb cc8b 73ba 0464 b5ba
00000370: 5413 ceba d989 cabb c888 9eba 71af 8abb
00000380: ecfd 42bb 6312 83bb e3b1 a03a f29c 3cbb
00000390: cdc8 b3ba 662f 093a 72d3 e7ba 2473 b2ba
000003a0: d0a8 a1b9 b9c4 93ba 2650 a8b8 3168 f539
000003b0: 6f3c 1dbb ada8 063a d5d3 8fba d853 21bb
000003c0: d9a6 92b9 af31 07bb 71df 033b 703c 44ba
000003d0: fe8d 45ba e5bb 5bba 3edf 8338 dbb1 89ba
000003e0: 904f 0c3a 0141 423b 4e10 2b3a 1867 90b9
000003f0: 9c91 f9ba f42e 11bb d106 883a 48ae 873a
