Assignment 1/code/mnist-classifier/best-mlp.pth (torch, 308801 bytes, 12 tensors)

layers.0.weight f4 [32, 784]
00000000: f77d d73c c7fe 463a 4fa9 8abc cb98 d9bc
00000010: f9b1 003d c085 5c3c 541d 11bc 779a e3bc
00000020: 1a6b 15bb a10e 9e3c 5eeb 473c 05da e3bc
00000030: 277e c4bc de7e 183b 27f8 d3bc 077f b5ba
00000040: 2e1e 753b 32bd 3bbc b424 223d 6f3a 433b
00000050: a9f7 053d 7bb7 033d 19e6 803c 7a7e 213d
00000060: 2dde 89bc b1d1 053d b069 82bb cb86 cd3c
00000070: 093b 0e3d f10b bfbc f96e 9b3c ddbb d83c
00000080: 51e5 a3bb ea55 0b3d 170d e539 0ef8 5bbc
00000090: c387 f93c 1037 273c d217 ad3b cabc 5dbc
000000a0: 3964 92bc 61b9 933b 81ca 2fbb 3271 f73b
000000b0: c72f 9eba 1399 babc 10d9 353c 7f77 bf3c
000000c0: 0df0 93bc c226 d73b 526a f03b 5701 a8ba
000000d0: 57f8 a1bc 0d0e 9fbc d2d8 41bc 0359 fc3c
000000e0: 96cd cd39 4eed 0a3d 05a2 a0bc 8fd1 9dbc
000000f0: 7902 143d 079f f63c 9ff9 383b 0196 2fbb
00000100: 80b9 543c 262f 4e3c d942 6bbc a40e 5d3c
00000110: 9d93 a43c f6f0 dcbb df33 ee3c 5d0a ee3a
00000120: d724 df3c a2de 423c 621e 0abc b3bb 103d
00000130: 9641 54bc ed5a 1c3c 7f70 043d 71dd ec3c
00000140: 2e9e 68bb ca0f b1bb e5c4 dabc a6a0 173d
00000150: b39e 93bc f5ae 4bbb 01f2 a5bb aa37 0ebb
00000160: 590d c23c 2a2b 01bb fabe 243d 8fd2 84bc
00000170: 0ea6 6b3b 8a8d e73b 32d3 003d b19b e63c
00000180: ab79 abbc fdf0 b43c c5c5 81bc e84c 373c
00000190: 2e03 803c 1b08 af3c fac0 36bc 50f2 813c
000001a0: 271b ed3c b59f aebb 8f9c a4bc e046 74b9
000001b0: 7daa d73c 4f7e ea3c 52e5 893c a735 ddbc
000001c0: fe8d c73a b3c5 b4bc 3244 223d 9045 133c
000001d0: fefa 563b 5a7c 983c fec9 633b 4f6f 243c
000001e0: 429a 6ebc e33e 083c 93b5 ad38 b25f 8abc
000001f0: 72cd ea3b a3d6 56bc 94f3 0e3d 1bc8 8abc
00000200: cc10 0d3c 94ef a23c 9324 623c 8b7e ddbc
00000210: a4d5 a7bc 1057 1bbc 1237 1a3d d8d3 0e3c
00000220: 2d6f 0e3d 7b87 9dbc 6dcc c53c 7c76 273d
00000230: 280d 003d 2bc4 c6bc 9379 a5bc 3343 9e3c
00000240: c2c9 2cbc 2225 213d 2061 753c a680 eb3c
00000250: 5402 443c 5f83 003d 1a55 51b9 c2f8 ce3a
00000260: c7a2 eabb b6f1 64bc 5d15 223b 12e2 c3bc
00000270: d850 3a3c c888 dd3c 8b2a bf3b 03c7 303c
00000280: a8ac e23c bf0b b7bc 3943 ab3c d01f 293d
00000290: b1bf 66bc b767 9ebc 4a53 22bc fff0 283b
000002a0: a580 b63c 9784 a339 980b 10bc d741 ddbc
000002b0: 3de7 aabc 27b5 0f3d c411 0d3d 397a b83c
000002c0: 2f41 cbbb 1ab1 83bc 4d92 1f3c 48df e73c
000002d0: e250 cdbc 69ab 903c 086f e1bc 6eaf c2bc
000002e0: 14d6 8dbb f7d7 efbc be95 c8bc 70e7 59ba
000002f0: 23db 66bc ce11 f83c b6cc ee3c 8949 213c
00000300: 7bd3 093c ddbf e03a 68a0 6f3c ab12 f73c
00000310: 93e5 a63c 93ec a7bc a7d7 b0bc e965 043d
00000320: 2a70 933c cabb b1bb 2825 79bc 6f20 0f3d
00000330: cba0 bcbb 677e c2bc 4275 2bbc 3793 573c
00000340: 4a56 143d 3e90 92bc d771 bd3b 2058 dc3b
00000350: fdf5 d6bb a536 d43c 8066 d83a 59a2 47bc
00000360: 2552 fd3b 8823 18bc 2adf 2c3c fd7c 37ba
00000370: f10d 9d3b 4a18 f63c 979f cfbc c76e a33c
00000380: c197 cb3c e108 dabc f632 e6bb 38ae 023c
00000390: 44b4 273d 1adc 4c3c e7f4 fa3c e4e4 82bc
000003a0: 6876 273d 0ce3 b33b 9618 9abb 4897 113d
000003b0: e06e 19bd 9594 15bc d277 01bc bc5e 6dbc
000003c0: 12aa 7f3c 1f17 ef3b 5f48 843c 28e3 5f3c
000003d0: 7541 3b3c d1d4 98bb 0517 dbbb 2891 293c
000003e0: dd02 273d e98e 16bc 83dd b1bc 49ba 0e3d
000003f0: 16c4 53bc e7da d1bb 3bad 083c aeeb babb
0.026305182 0.00075910654 -0.016926436 -0.026562115 0.031419728 0.013459623 -0.00885709 -0.027783616
-0.0022799433 0.019294085 0.012202112 -0.02781392 -0.023985935 0.0023268978 -0.025875164 -0.0013847061
0.0037402022 -0.011458682 0.039585784 0.0029789468 0.03270689 0.032157402 0.01573472 0.039427258
-0.016829574 0.03267068 -0.003979884 0.025088688 0.03472427 -0.023321124 0.018973814 0.026456768
-0.005001702 0.03401748 0.00043688036 -0.01342584 0.030460244 0.010205999 0.0052823806 -0.01353378
-0.017870056 0.004508183 -0.0026823583 0.0075513357 -0.0012068682 -0.02277807 0.011099115 0.02337241
-0.018058801 0.0065658996 0.007336893 -0.0012817782 -0.019771738 -0.01941588 -0.011831479 0.030804163
0.0003925382 0.033917718 -0.019608507 -0.019264964 0.03613517 0.030105127 0.0028224958 -0.002679229
0.01298368 0.012584483 -0.014359199 0.01349226 0.020089919 -0.006742592 0.029077468 0.0018161047
0.027239246 0.0118939 -0.008430095 0.035335254 -0.01295509 0.009543163 0.032333847 0.028914185
-0.0035494673 -0.0054034935 -0.026705215 0.03701844 -0.01802001 -0.0031079624 -0.0050642495 -0.0021700659
0.023688005 -0.0019709566 0.040221192 -0.016213683 0.003595713 0.0070664333 0.03145141 0.028150411
-0.02093204 0.022087568 -0.015841374 0.0111877695 0.015626516 0.02136617 -0.011154408 0.015862614
0.028943611 -0.005329097 -0.020094184 -0.00023296056 0.026326412 0.028624682 0.016832981 -0.027003122
0.0015224812 -0.022066927 0.039615817 0.008988753 0.0032803412 0.018613983 0.0034757848 0.010036304
-0.014563145 0.008315775 8.283104e-05 -0.016891334 0.0071656043 -0.013112697 0.034900263 -0.01694112
0.008609962 0.01988963 0.013802665 -0.02703788 -0.020487614 -0.009481207 0.037650175 0.0087175
0.034773994 -0.019229641 0.02414533 0.04088448 0.031262547 -0.024263462 -0.020199573 0.019319152
-0.01054615 0.039342053 0.01497677 0.028747868 0.011963446 0.031375285 -0.00019963496 0.0015790688
-0.007160518 -0.013973644 0.0024731972 -0.02391151 0.011371814 0.027042761 0.005833929 0.010789636
0.02767022 -0.022344468 0.020906078 0.041290104 -0.014083789 -0.019336564 -0.009907553 0.002577841
0.02227814 0.0003118857 -0.008791827 -0.027008934 -0.020862216 0.03508487 0.03444077 0.022519218
-0.006202839 -0.01607566 0.009739471 0.028304711 -0.025062982 0.01765986 -0.027518764 -0.023765292
-0.0043284986 -0.029277785 -0.024485465 -0.000831238 -0.014090332 0.030281927 0.029150348 0.009844192
0.008412237 0.0017147023 0.014625646 0.030160269 0.020373141 -0.02049855 -0.021587206 0.03232375
0.01799782 -0.0054239975 -0.015206613 0.03494304 -0.0057564727 -0.023741914 -0.010464968 0.013157657
0.036215104 -0.017891046 0.005781393 0.0067243725 -0.006560086 0.025904963 0.001651004 -0.012184703
0.0077307397 -0.009285815 0.010551253 -0.00069995207 0.0047929217 0.030040879 -0.025344653 0.019950284
0.024852635 -0.026615562 -0.007025118 0.007976107 0.0409434 0.012503648 0.030634357 -0.015978284
0.040884405 0.0054897126 -0.004702638 0.035544664 -0.037459254 -0.009129663 -0.007902103 -0.0144879185
0.015604513 0.0072964574 0.01614779 0.013664998 0.01142918 -0.0046640416 -0.0066860938 0.010349549
0.040774215 -0.009189346 -0.02171207 0.034845624 -0.0129251685 -0.006404269 0.008342083 -0.0057043647

layers.0.bias f4 [32]
00000000: a797 a0bc 9da6 26bd 70aa 14bd 2d37 4f3c
00000010: 5177 04bd 24b8 2f3c 3b95 01bd 0099 28b9
00000020: fa24 aa3c c723 2b3c 0908 20bd 03de 12bd
00000030: 5317 063c bb13 f23c 2021 96bc 1ceb 24bc
00000040: db08 efbc dfec 65bd 0cb3 1c3c 51d8 f5bc
00000050: 056a 7fba 7a0a ebbb b746 9e3c d9e3 ca3c
00000060: 666b 8c3c 8c05 503b 896a ab3c e4fb 4b3c
00000070: a6eb 0bbd b12e 13bd 7d3d eebb 5493 bcbb
-0.019603563 -0.04068624 -0.036295354 0.012647432 -0.03234035 0.010725055 -0.031636458 -0.00016078725
0.020769585 0.010445542 -0.039070163 -0.035856258 0.008184272 0.029550424 -0.018326342 -0.01006582
-0.029179027 -0.0561341 0.0095641725 -0.030010374 -0.0009743276 -0.0071728798 0.019320829 0.02476685
0.017141055 0.0031741587 0.020924823 0.012450192 -0.03416028 -0.0359332 -0.0072705136 -0.0057548676

layers.2.weight f4 [10, 32]
00000000: e39a 2b3e c42e 0a3d 88ca 31be cea2 6fbd
00000010: 3ee1 33be c0d7 c9bc 904f d83d ccae 663d
00000020: feb1 123e c27a ae3d 17bc a5bd c293 90bd
00000030: 3c26 303e 3119 f5bb 2ff0 60bf 80a7 b9bb
00000040: 8a1c 1dbe 4d14 1e3e 861f 943c 08fa 423d
00000050: 8a8e 363d 1891 f9bd 62d5 42bd e543 153d
00000060: e0a7 0ebe 915c 483d 0533 0bbd 8c9c e9be
00000070: 8eed febd 4371 3fbd 4be2 07be ae3e 61bd
00000080: 3671 70bd 7f62 243e 766d 94bd d891 e4bd
00000090: 430d 30bd 3f35 04be 0950 86bd 5061 abbd
000000a0: 1ec9 063e 9732 863c 95c7 753d 66bd b1bd
000000b0: a506 fd3d e1f8 713c e677 01be dbb0 0d3e
000000c0: 6952 463d b06d 0e3e 4946 70bd 0c9c 00be
000000d0: 900e 353d 93e2 e33d 4372 2dbe da8a 32bd
000000e0: 5812 933d b506 8f3d 9315 02be a3fd 053f
000000f0: 9aef babd 42c0 0c3d c91f 15bc 8705 d4bd
00000100: e116 32bc e4f8 08be 7450 83bd e7fa 19be
00000110: 2117 e93d ac7c 25bd 03cc 21be 602e 10be
00000120: 672b 13be bd68 3ebb a627 7c3d 8770 bc3d
00000130: c01a 1b3d 5e71 f63d 18d5 3ebf c064 123d
00000140: 7f39 083e d116 8fbd ebab 1c3e 00ae ff3a
00000150: 32a2 19be 012d d1bd 8f14 a7bd 9a58 ebbc
00000160: 74b6 84bd a526 84bd 4b87 1b3e 601b 183f
00000170: 438f cbbd 0f80 25be 8a2b ccbd 5274 28be
00000180: fd8f ed3d bd55 92bd 69e3 503d 4f1e 00bc
00000190: 8f46 e1bd 881b 4abd 6c2e 2dbe 73e6 053e
000001a0: 8e2d 98bc c737 a1bd 1732 23be fb15 febd
000001b0: 08ef 1b3e 63a2 983c b132 67bf a4c3 79bd
000001c0: 528a 27be b50e d63c 1b44 233e 4fc2 2c3e
000001d0: 1908 42bd 56dc 10bd 469b 2cbe e384 e53d
000001e0: 3995 38bd bcad 27be f3ea 8c3d ceca a83e
000001f0: af66 fb3d 59f0 cc3d 8f6d 92bd 0a1f ad3d
00000200: 2b82 8e3c bbe6 09be b13a 16be 655d 0cbe
00000210: 2ad0 92bc 08bf 25bd a626 9ebd da52 55bd
00000220: 5692 5cbd 4d75 8d3d 5e84 81bb b1e2 d7bd
00000230: 874a e53d 338a f9bd 47aa 5d3f d04e fcbc
00000240: fe9a 12be e646 403c e83c c63d 6e37 fdbd
00000250: df72 94bd a8fd ae3c 32aa d03d c9eb 323c
00000260: 1476 083e 219f 77bd f72b 11be adc9 7ebf
00000270: 926f 783d 1b47 07be 35bc ffbc ad25 1d3e
00000280: 0291 053e 633e 763d 7d49 0bbd 4fae 88bd
00000290: a63d a53d 54ac 463d 0868 0ebe 31a7 cdbd
000002a0: 0001 8bbd 450c 893a 4fed 9ebb adb0 833d
000002b0: 9b36 c93d df1d 87bd bc15 28be 8866 27bd
000002c0: 1b6b 7e3d f939 d6bc 17fa 8ebd 90a7 4abd
000002d0: 0ad5 00be ddc5 5dbd 404f 4ebd abc0 18be
000002e0: dd72 273e 6170 d7bd 3a24 88bd 9ef1 fabd
000002f0: e9a5 2ebe 98ab 323e bee1 12be c6a6 b93d
00000300: b337 e23c f9ba d13d 9de0 a03d 9ae3 19ba
00000310: e8bc f2bd 608a b13b 90a7 c4bc 1655 f33d
00000320: 4eb5 073e 1f3b 27be c795 d6bd 7b2c d8bd
00000330: 6626 253e 310e 643d 754b 0d3f 0ec8 ca3d
00000340: 3ed6 a9bd e453 543d fa70 cd3d 8a9d c63d
00000350: d337 a13d e45d f43d a6aa c7bd 1de7 883d
00000360: ca55 fdbd 1fcd 563c 5e5d 32bd 497d 14be
00000370: 2c2c 70bb 8625 b23d 2b74 183e e005 8e3b
00000380: 014a 6ebd 4a30 bbbd 7fef e33d 9fa9 08be
00000390: 3a5b 8bbd 00e4 deba 6f52 363d 7078 00bd
000003a0: f01d 283e 9944 dfba a8a7 99bd 528b 8fbd
000003b0: daf0 fcbd 77bf fc3d 96cb 6ebe 2091 2fbc
000003c0: 1b90 9cbd 8c14 f93d 29dd 983d fcf8 29be
000003d0: af07 233d 99e8 c8bb 2d1b a3bd 1315 033e
000003e0: 4276 19be 83fa 56bc f0a3 853a 2efd 26bf
000003f0: c649 c3bc 4878 6c3d 3123 933c e459 853d
0.16758303 0.033736005 -0.17362416 -0.058504872 -0.17566392 -0.02463901 0.1056205 0.056319043
0.14325711 0.08519508 -0.08092516 -0.070594326 0.17202085 -0.0074798097 -0.8786649 -0.0056657195
-0.15342918 0.15437432 0.018081438 0.04760173 0.04456953 -0.121858776 -0.04756678 0.036441702
-0.13931227 0.048916403 -0.033984203 -0.45627248 -0.12447654 -0.046738874 -0.13269918 -0.054991417
-0.058701716 0.16053198 -0.072474405 -0.1116063 -0.042981397 -0.12910937 -0.06558234 -0.0836817
0.13162658 0.016381545 0.06000479 -0.08678703 0.12354783 0.01476881 -0.12643394 0.13836996
0.048418436 0.1390903 -0.05866078 -0.12559527 0.04420334 0.111272 -0.16938119 -0.04358945
0.07181233 0.06983701 -0.12703542 0.52340144 -0.091277316 0.03436304 -0.009101816 -0.10352617
-0.010869713 -0.13376194 -0.064118296 -0.15037118 0.113813646 -0.0404021 -0.1580048 -0.1408019
-0.14372025 -0.0029054128 0.06156125 0.092011504 0.037867308 0.12033342 -0.74543905 0.035740614
0.13303183 -0.06986774 0.15299957 0.0019506812 -0.15003279 -0.10213662 -0.08158218 -0.028728772
-0.06480113 -0.06452683 0.15188329 0.5941677 -0.099394344 -0.16162132 -0.09969242 -0.16450623
0.11599729 -0.071452595 0.050998125 -0.007819726 -0.10999786 -0.049342662 -0.1691224 0.1307619
-0.01857641 -0.07871967 -0.15937077 -0.12406536 0.15227902 0.01863212 -0.90311724 -0.060977593
-0.16361359 0.02613006 0.15943949 0.16870998 -0.047371004 -0.03536638 -0.16856107 0.11206987
-0.045064185 -0.16374868 0.068807505 0.32967228 0.12275445 0.1000678 -0.07149803 0.08453186
0.017396053 -0.13466923 -0.14670826 -0.13707502 -0.017921526 -0.040465385 -0.07722215 -0.052080967
-0.053850494 0.06907139 -0.003952547 -0.10541285 0.111958556 -0.121845625 0.8658795 -0.0307993
-0.14316937 0.0117356535 0.09679586 -0.12364088 -0.072484724 0.021361187 0.10188712 0.010920473
0.13326293 -0.06045449 -0.14176928 -0.9952648 0.060653277 -0.13210718 -0.031217674 0.15346403
0.13043597 0.06011809 -0.03400563 -0.06673872 0.08068399 0.04850419 -0.13906872 -0.10041655
-0.067873 0.0010455927 -0.0048500667 0.064301826 0.09824868 -0.06597494 -0.16414541 -0.040869266
0.062113862 -0.02615069 -0.069812946 -0.049476206 -0.12581268 -0.054143775 -0.050368547 -0.14917247
0.1635241 -0.105194815 -0.06647535 -0.12253116 -0.17055477 0.1744827 -0.14343926 0.09065013
0.02761445 0.1024074 0.078553416 -0.0005870402 -0.11852437 0.005418107 -0.024005681 0.11881463
0.13252756 -0.16331147 -0.104777865 -0.10555359 0.16127929 0.055677596 0.55193263 0.09901439
-0.082928166 0.051837817 0.10031314 0.09698017 0.07871976 0.11931971 -0.097493455 0.06684706
-0.123698786 0.013110428 -0.043546073 -0.14500917 -0.0036647422 0.08698563 0.14888065 0.0043341964
-0.058176044 -0.0914007 0.11129665 -0.13345955 -0.068045095 -0.0017005205 0.04451221 -0.03136486
0.1641767 -0.0017033993 -0.07502681 -0.07008995 -0.12350626 0.123412065 -0.2331985 -0.010715753
-0.076446734 0.12162122 0.07464058 -0.16598886 0.03980225 -0.0061312434 -0.07964168 0.12801008
-0.14986518 -0.01312125 0.0010195952 -0.6523007 -0.023838889 0.057731897 0.017961117 0.06511286

layers.2.bias f4 [10]
00000000: d855 6a40 fc3f 84c0 93bb ebbf 1625 883f
00000010: f2f3 2bc0 e71e c93f 5e51 6fc0 5581 5240
00000020: 8b1a 163e 0e28 453f
3.6614895 -4.1328106 -1.8416618 1.0636318 -2.6867642 1.5712556 -3.7393413 3.2891438
0.14658563 0.77014244

exp_avg f4 [32, 784]
00000000: 0400 0080 0400 0080 0400 0080 0400 0080
00000010: 0400 0080 0400 0080 0400 0080 0400 0080
00000020: 0400 0080 0400 0080 0400 0080 0400 0080
00000030: 0400 0080 0400 0080 0400 0080 0400 0080
00000040: 0400 0080 0400 0080 0400 0080 0400 0080
00000050: 0400 0080 0400 0080 0400 0080 0400 0080
00000060: 0400 0080 0400 0080 0400 0080 0400 0080
00000070: 0400 0080 0400 0080 0400 0080 0400 0080
00000080: 0400 0080 0400 0080 0400 0080 0400 0080
00000090: 0400 0080 0400 0080 0400 0080 0400 0080
000000a0: 0400 0080 0400 0080 0400 0080 0400 0080
000000b0: 0400 0080 0400 0080 0400 0080 0400 0080
000000c0: 0400 0080 0400 0080 0400 0080 0400 0080
000000d0: 0400 0080 0400 0080 0400 0080 0400 0080
000000e0: 0400 0080 0400 0080 0400 0080 0400 0080
000000f0: 0400 0080 0400 0080 0400 0080 0400 0080
00000100: 0400 0080 0400 0080 0400 0080 0400 0080
00000110: 0400 0080 0400 0080 0400 0080 0400 0080
00000120: 0400 0080 0400 0080 0400 0080 0400 0080
00000130: 0400 0080 0400 0080 0400 0080 0400 0080
00000140: 0400 0080 0400 0080 0400 0080 0400 0080
00000150: 0400 0080 0400 0080 0400 0080 0400 0080
00000160: 0400 0080 0400 0080 0400 0080 0400 0080
00000170: 0400 0080 0400 0080 0400 0080 0400 0080
00000180: 0400 0080 0400 0080 0400 0080 0400 0080
00000190: 0400 0080 0400 0080 0400 0080 0400 0080
000001a0: 0400 0080 0400 0080 0400 0080 0400 0080
000001b0: 0400 0080 0400 0080 0400 0080 0400 0080
000001c0: 0400 0080 0400 0080 0400 0080 0400 0080
000001d0: 0400 0080 0400 0080 0400 0080 0400 0080
000001e0: 0400 0080 0400 0080 0400 0080 0400 0080
000001f0: 0400 0080 0400 0080 0400 0080 0400 0080
00000200: 0400 0080 0400 0080 0400 0080 0400 0080
00000210: 0400 0080 0400 0080 0400 0080 0400 0080
00000220: 0400 0080 0400 0080 0400 0080 0400 0080
00000230: 0400 0080 0400 0080 0400 0080 0400 0080
00000240: 0400 0080 0400 0080 0400 0080 0400 0080
00000250: 0400 0080 0400 0080 0400 0080 0400 0080
00000260: 0400 0080 0400 0080 0400 0080 0400 0080
00000270: 0400 0080 0400 0080 0400 0080 0400 0080
00000280: 0400 0080 0400 0080 0400 0080 0400 0080
00000290: 0400 0080 0400 0080 0400 0080 0400 0080
000002a0: 0400 0080 0400 0080 0400 0080 0400 0080
000002b0: 0400 0080 0400 0080 0400 0080 0400 0080
000002c0: 0400 0080 0400 0080 0400 0080 0400 0080
000002d0: 0400 0080 0400 0080 0400 0080 0400 0080
000002e0: 0400 0080 0400 0080 0400 0080 0400 0080
000002f0: 0400 0080 0400 0080 0400 0080 0400 0080
00000300: 0400 0080 0400 0080 0400 0080 0400 0080
00000310: 0400 0080 0400 0080 0400 0080 0400 0080
00000320: 0400 0080 0400 0080 0400 0080 0400 0080
00000330: 0400 0080 0400 0080 0400 0080 0400 0080
00000340: 0400 0080 0400 0080 0400 0080 0400 0080
00000350: 0400 0080 0400 0080 0400 0080 0400 0080
00000360: 0400 0080 0400 0080 0400 0080 0400 0080
00000370: 0400 0080 0400 0080 0400 0080 0400 0080
00000380: 0400 0080 0400 0080 0400 0080 0400 0080
00000390: 0400 0080 0400 0080 0400 0080 0400 0080
000003a0: 0400 0080 0400 0080 0400 0080 0400 0080
000003b0: 0400 0000 0400 0000 0400 0080 0400 0080
000003c0: 0400 0080 0400 0080 0400 0080 0400 0080
000003d0: 0400 0080 0400 0080 0400 0080 0400 0080
000003e0: 0400 0080 0400 0080 0400 0080 0400 0080
000003f0: 0400 0080 0400 0080 0400 0080 0400 0080
-6e-45 -6e-45 -6e-45 -6e-45 -6e-45 -6e-45 -6e-45 -6e-45
-6e-45 -6e-45 -6e-45 -6e-45 -6e-45 -6e-45 -6e-45 -6e-45
-6e-45 -6e-45 -6e-45 -6e-45 -6e-45 -6e-45 -6e-45 -6e-45
-6e-45 -6e-45 -6e-45 -6e-45 -6e-45 -6e-45 -6e-45 -6e-45
-6e-45 -6e-45 -6e-45 -6e-45 -6e-45 -6e-45 -6e-45 -6e-45
-6e-45 -6e-45 -6e-45 -6e-45 -6e-45 -6e-45 -6e-45 -6e-45
-6e-45 -6e-45 -6e-45 -6e-45 -6e-45 -6e-45 -6e-45 -6e-45
-6e-45 -6e-45 -6e-45 -6e-45 -6e-45 -6e-45 -6e-45 -6e-45
-6e-45 -6e-45 -6e-45 -6e-45 -6e-45 -6e-45 -6e-45 -6e-45
-6e-45 -6e-45 -6e-45 -6e-45 -6e-45 -6e-45 -6e-45 -6e-45
-6e-45 -6e-45 -6e-45 -6e-45 -6e-45 -6e-45 -6e-45 -6e-45
-6e-45 -6e-45 -6e-45 -6e-45 -6e-45 -6e-45 -6e-45 -6e-45
-6e-45 -6e-45 -6e-45 -6e-45 -6e-45 -6e-45 -6e-45 -6e-45
-6e-45 -6e-45 -6e-45 -6e-45 -6e-45 -6e-45 -6e-45 -6e-45
-6e-45 -6e-45 -6e-45 -6e-45 -6e-45 -6e-45 -6e-45 -6e-45
-6e-45 -6e-45 -6e-45 -6e-45 -6e-45 -6e-45 -6e-45 -6e-45
-6e-45 -6e-45 -6e-45 -6e-45 -6e-45 -6e-45 -6e-45 -6e-45
-6e-45 -6e-45 -6e-45 -6e-45 -6e-45 -6e-45 -6e-45 -6e-45
-6e-45 -6e-45 -6e-45 -6e-45 -6e-45 -6e-45 -6e-45 -6e-45
-6e-45 -6e-45 -6e-45 -6e-45 -6e-45 -6e-45 -6e-45 -6e-45
-6e-45 -6e-45 -6e-45 -6e-45 -6e-45 -6e-45 -6e-45 -6e-45
-6e-45 -6e-45 -6e-45 -6e-45 -6e-45 -6e-45 -6e-45 -6e-45
-6e-45 -6e-45 -6e-45 -6e-45 -6e-45 -6e-45 -6e-45 -6e-45
-6e-45 -6e-45 -6e-45 -6e-45 -6e-45 -6e-45 -6e-45 -6e-45
-6e-45 -6e-45 -6e-45 -6e-45 -6e-45 -6e-45 -6e-45 -6e-45
-6e-45 -6e-45 -6e-45 -6e-45 -6e-45 -6e-45 -6e-45 -6e-45
-6e-45 -6e-45 -6e-45 -6e-45 -6e-45 -6e-45 -6e-45 -6e-45
-6e-45 -6e-45 -6e-45 -6e-45 -6e-45 -6e-45 -6e-45 -6e-45
-6e-45 -6e-45 -6e-45 -6e-45 -6e-45 -6e-45 -6e-45 -6e-45
-6e-45 -6e-45 -6e-45 -6e-45 6e-45 6e-45 -6e-45 -6e-45
-6e-45 -6e-45 -6e-45 -6e-45 -6e-45 -6e-45 -6e-45 -6e-45
-6e-45 -6e-45 -6e-45 -6e-45 -6e-45 -6e-45 -6e-45 -6e-45

exp_avg_sq f4 [32, 784]
00000000: d8b0 8c27 d8b0 8c27 d8b0 8c27 d8b0 8c27
00000010: d8b0 8c27 d8b0 8c27 d8b0 8c27 d8b0 8c27
00000020: d8b0 8c27 d8b0 8c27 d8b0 8c27 d8b0 8c27
00000030: d8b0 8c27 d8b0 8c27 d8b0 8c27 d8b0 8c27
00000040: d8b0 8c27 d8b0 8c27 d8b0 8c27 d8b0 8c27
00000050: d8b0 8c27 d8b0 8c27 d8b0 8c27 d8b0 8c27
00000060: d8b0 8c27 d8b0 8c27 d8b0 8c27 d8b0 8c27
00000070: d8b0 8c27 d8b0 8c27 d8b0 8c27 d8b0 8c27
00000080: d8b0 8c27 d8b0 8c27 d8b0 8c27 d8b0 8c27
00000090: d8b0 8c27 d8b0 8c27 d8b0 8c27 d8b0 8c27
000000a0: d8b0 8c27 d8b0 8c27 d8b0 8c27 d8b0 8c27
000000b0: d8b0 8c27 d8b0 8c27 d8b0 8c27 d8b0 8c27
000000c0: d8b0 8c27 d8b0 8c27 d8b0 8c27 d8b0 8c27
000000d0: d8b0 8c27 d8b0 8c27 d8b0 8c27 d8b0 8c27
000000e0: d8b0 8c27 d8b0 8c27 d8b0 8c27 d8b0 8c27
000000f0: d8b0 8c27 d8b0 8c27 d8b0 8c27 d8b0 8c27
00000100: d8b0 8c27 d8b0 8c27 d8b0 8c27 d8b0 8c27
00000110: d8b0 8c27 d8b0 8c27 d8b0 8c27 d8b0 8c27
00000120: d8b0 8c27 d8b0 8c27 d8b0 8c27 d8b0 8c27
00000130: d8b0 8c27 d8b0 8c27 d8b0 8c27 d8b0 8c27
00000140: d8b0 8c27 d8b0 8c27 d8b0 8c27 d8b0 8c27
00000150: d8b0 8c27 d8b0 8c27 d8b0 8c27 d8b0 8c27
00000160: d8b0 8c27 d8b0 8c27 d8b0 8c27 d8b0 8c27
00000170: d8b0 8c27 d8b0 8c27 d8b0 8c27 d8b0 8c27
00000180: d8b0 8c27 d8b0 8c27 d8b0 8c27 d8b0 8c27
00000190: d8b0 8c27 d8b0 8c27 d8b0 8c27 d8b0 8c27
000001a0: d8b0 8c27 d8b0 8c27 d8b0 8c27 d8b0 8c27
000001b0: d8b0 8c27 d8b0 8c27 d8b0 8c27 d8b0 8c27
000001c0: d8b0 8c27 d8b0 8c27 d8b0 8c27 d8b0 8c27
000001d0: d8b0 8c27 d8b0 8c27 d8b0 8c27 4865 8b27
000001e0: 6dcc 7327 6dcc 7327 03cd 7b27 0f63 a027
000001f0: 427c c727 427c c727 427c c727 fcd2 5a27
00000200: db8f 0527 f152 1627 1fc9 5c27 d8b0 8c27
00000210: 0fea 8b27 cdfc 8027 39ae 8727 d8b0 8c27
00000220: d8b0 8c27 d8b0 8c27 d8b0 8c27 d8b0 8c27
00000230: d8b0 8c27 d8b0 8c27 d8b0 8c27 d8b0 8c27
00000240: d8b0 8c27 d8b0 8c27 0193 8327 f972 7b27
00000250: bc48 6d27 f372 7b27 60af 9f27 35ca c127
00000260: 462a df27 d96b 9b27 06f8 8127 8101 6827
00000270: e2de 5026 5660 c726 a5d6 2427 194a 6027
00000280: b935 8527 8c60 6327 8098 2e27 17ba 3e27
00000290: b2cb 8327 d8b0 8c27 d8b0 8c27 d8b0 8c27
000002a0: d8b0 8c27 d8b0 8c27 d8b0 8c27 d8b0 8c27
000002b0: d8b0 8c27 d8b0 8c27 2a8c 8727 bc48 6d27
000002c0: bc48 6d27 5009 b427 e099 d527 1319 8a27
000002d0: ac0f 0727 59a0 8326 aaec 5926 c3b6 1126
000002e0: 33a3 7b26 88e8 2726 41d9 f126 4505 1027
000002f0: 220f 3e27 4802 1727 fb53 1427 93b4 1e27
00000300: 65a1 7a27 d8b0 8c27 d8b0 8c27 d8b0 8c27
00000310: d8b0 8c27 d8b0 8c27 d8b0 8c27 d8b0 8c27
00000320: d8b0 8c27 d8b0 8c27 ab80 7c27 5bd9 3f27
00000330: cc14 8127 8f13 6f27 e50e 7a27 9b11 0126
00000340: b4f2 d225 4da1 5225 6c45 1726 2557 9825
00000350: 412e 7c26 c588 9226 eeac dd25 1004 5826
00000360: 3c64 ab26 e3a2 9526 91d2 2427 307a 3e27
00000370: 4724 9e27 6743 bd27 d8b0 8c27 d8b0 8c27
00000380: d8b0 8c27 d8b0 8c27 d8b0 8c27 d8b0 8c27
00000390: d8b0 8c27 d8b0 8c27 eca9 6d27 5989 6827
000003a0: 6ccc 3f27 e1ec 2d27 1f42 5c26 3502 9a23
000003b0: 53a6 f023 7aa2 8822 ee44 1026 b59b 6e22
000003c0: 1473 4126 15b6 6b26 fa2a be25 3b56 e325
000003d0: fb3c d826 7f41 ad27 dc5d 6927 2d88 b427
000003e0: 543e d927 cc2e a627 d8b0 8c27 d8b0 8c27
000003f0: d8b0 8c27 d8b0 8c27 d8b0 8c27 d8b0 8c27
3.904954e-15 3.904954e-15 3.904954e-15 3.904954e-15 3.904954e-15 3.904954e-15 3.904954e-15 3.904954e-15
3.904954e-15 3.904954e-15 3.904954e-15 3.904954e-15 3.904954e-15 3.904954e-15 3.904954e-15 3.904954e-15
3.904954e-15 3.904954e-15 3.904954e-15 3.904954e-15 3.904954e-15 3.904954e-15 3.904954e-15 3.904954e-15
3.904954e-15 3.904954e-15 3.904954e-15 3.904954e-15 3.904954e-15 3.904954e-15 3.904954e-15 3.904954e-15
3.904954e-15 3.904954e-15 3.904954e-15 3.904954e-15 3.904954e-15 3.904954e-15 3.904954e-15 3.904954e-15
3.904954e-15 3.904954e-15 3.904954e-15 3.904954e-15 3.904954e-15 3.904954e-15 3.904954e-15 3.904954e-15
3.904954e-15 3.904954e-15 3.904954e-15 3.904954e-15 3.904954e-15 3.904954e-15 3.904954e-15 3.904954e-15
3.904954e-15 3.904954e-15 3.904954e-15 3.904954e-15 3.904954e-15 3.904954e-15 3.904954e-15 3.904954e-15
3.904954e-15 3.904954e-15 3.904954e-15 3.904954e-15 3.904954e-15 3.904954e-15 3.904954e-15 3.904954e-15
3.904954e-15 3.904954e-15 3.904954e-15 3.904954e-15 3.904954e-15 3.904954e-15 3.904954e-15 3.904954e-15
3.904954e-15 3.904954e-15 3.904954e-15 3.904954e-15 3.904954e-15 3.904954e-15 3.904954e-15 3.904954e-15
3.904954e-15 3.904954e-15 3.904954e-15 3.904954e-15 3.904954e-15 3.904954e-15 3.904954e-15 3.904954e-15
3.904954e-15 3.904954e-15 3.904954e-15 3.904954e-15 3.904954e-15 3.904954e-15 3.904954e-15 3.904954e-15
3.904954e-15 3.904954e-15 3.904954e-15 3.904954e-15 3.904954e-15 3.904954e-15 3.904954e-15 3.904954e-15
3.904954e-15 3.904954e-15 3.904954e-15 3.904954e-15 3.904954e-15 3.904954e-15 3.904954e-15 3.869006e-15
3.3833844e-15 3.3833844e-15 3.4944384e-15 4.451632e-15 5.5368316e-15 5.5368316e-15 5.5368316e-15 3.0367952e-15
1.8535442e-15 2.0861644e-15 3.0640161e-15 3.904954e-15 3.8834017e-15 3.5801224e-15 3.765892e-15 3.904954e-15
3.904954e-15 3.904954e-15 3.904954e-15 3.904954e-15 3.904954e-15 3.904954e-15 3.904954e-15 3.904954e-15
3.904954e-15 3.904954e-15 3.6519186e-15 3.4895574e-15 3.2929786e-15 3.4895561e-15 4.4321507e-15 5.3787494e-15
6.1940767e-15 4.313807e-15 3.60736e-15 3.2197283e-15 7.246656e-16 1.3834511e-15 2.287593e-15 3.1126413e-15
3.697316e-15 3.1554916e-15 2.4230021e-15 2.6468676e-15 3.658065e-15 3.904954e-15 3.904954e-15 3.904954e-15
3.904954e-15 3.904954e-15 3.904954e-15 3.904954e-15 3.904954e-15 3.904954e-15 3.7621993e-15 3.2929786e-15
3.2929786e-15 4.9970133e-15 5.9286208e-15 3.832988e-15 1.874351e-15 9.133413e-16 7.560774e-16 5.055467e-16
8.7304295e-16 5.8254903e-16 1.6781621e-15 1.9986871e-15 2.6376e-15 2.0956696e-15 2.0584652e-15 2.2024794e-15
3.4781962e-15 3.904954e-15 3.904954e-15 3.904954e-15 3.904954e-15 3.904954e-15 3.904954e-15 3.904954e-15
3.904954e-15 3.904954e-15 3.5041776e-15 2.6624403e-15 3.582724e-15 3.3178516e-15 3.4702544e-15 4.4779726e-16
3.6593655e-16 1.8269247e-16 5.2482733e-16 2.6426848e-16 8.749275e-16 1.0167857e-15 3.845457e-16 7.494556e-16
1.1892677e-15 1.0383102e-15 2.287372e-15 2.6434035e-15 4.389314e-15 5.2531116e-15 3.904954e-15 3.904954e-15
3.904954e-15 3.904954e-15 3.904954e-15 3.904954e-15 3.904954e-15 3.904954e-15 3.2982472e-15 3.2270924e-15
2.6617392e-15 2.4136985e-15 7.6417444e-16 1.6697648e-17 2.6091293e-17 3.7034903e-18 5.0053453e-16 3.2337445e-18
6.7116286e-16 8.177877e-16 3.2988868e-16 3.9436655e-16 1.500454e-15 4.8088157e-15 3.2386127e-15 5.010768e-15
6.0297175e-15 4.6124993e-15 3.904954e-15 3.904954e-15 3.904954e-15 3.904954e-15 3.904954e-15 3.904954e-15

exp_avg f4 [32]
00000000: 0400 0000 0400 0000 0400 0000 0400 0000
00000010: 0400 0000 0000 0000 0400 0000 0000 0000
00000020: 0400 0000 0400 0000 0400 0000 0400 0000
00000030: 0400 0000 0400 0000 59a6 253c 0000 0000
00000040: 0400 0000 0400 0000 0400 0000 0000 0000
00000050: 0400 0000 0400 0000 0400 0000 0400 0000
00000060: 0400 0000 0400 0000 0400 0000 92dd 623b
00000070: 0400 0000 0400 0000 0400 0000 0000 0000
6e-45 6e-45 6e-45 6e-45 6e-45 0.0 6e-45 0.0
6e-45 6e-45 6e-45 6e-45 6e-45 6e-45 0.010110461 0.0
6e-45 6e-45 6e-45 0.0 6e-45 6e-45 6e-45 6e-45
6e-45 6e-45 6e-45 0.003461693 6e-45 6e-45 6e-45 0.0

exp_avg_sq f4 [32]
00000000: d1b0 8c27 0e33 ce26 fd8d 5d21 6e7f a826
00000010: 088d 0525 0000 0000 4200 1e29 0000 0000
00000020: 0fb8 4e28 7f2e 7e28 baa8 d224 6aa3 9529
00000030: 01fa 2728 6f58 0026 5781 c83b 0000 0000
00000040: dec1 7926 012f b328 6e31 1323 0000 0000
00000050: 5c2a 9924 e460 3126 0148 7329 b440 5629
00000060: f9c3 e824 06c8 3a26 73e3 4526 3d7c ae3b
00000070: fe0f 8c29 1166 be25 0418 b525 0000 0000
3.904951e-15 1.430796e-15 7.506563e-19 1.1691882e-15 1.1583694e-16 0.0 3.508327e-14 0.0
1.14752085e-14 1.4109915e-14 9.1358816e-17 6.645277e-14 9.324573e-15 4.452877e-16 0.006118934 0.0
8.665197e-16 1.9893377e-14 7.979353e-18 0.0 6.642493e-17 6.154052e-16 5.4019292e-14 4.7573666e-14
1.0094595e-16 6.4802796e-16 6.8656356e-16 0.005324869 6.220023e-14 3.302891e-16 3.1414769e-16 0.0

exp_avg f4 [10, 32]
00000000: 0400 0000 0400 0000 0400 0000 0400 0000
00000010: 0400 0000 0000 0000 0400 0000 0000 0000
00000020: 0400 0000 0400 0000 0400 0000 0400 0000
00000030: 0400 0080 0400 0080 fe80 683b 0000 0000
00000040: 0400 0000 0400 0080 0400 0000 0000 0000
00000050: 0400 0000 0400 0000 0400 0000 0400 0000
00000060: 0400 0000 0400 0080 0400 0080 ecbe 83bd
00000070: 0400 0000 0400 0000 0400 0000 0000 0000
00000080: 0400 0000 0400 0000 0400 0000 0400 0080
00000090: 0400 0000 0000 0000 0400 0080 0000 0000
000000a0: 0400 0000 0400 0000 0400 0000 0400 0080
000000b0: 0400 0000 0400 0000 2040 07bd 0000 0000
000000c0: 0400 0000 0400 0000 0400 0000 0000 0000
000000d0: 0400 0000 0400 0080 0400 0080 0400 0080
000000e0: 0400 0000 0400 0000 0400 0080 e7c7 a4bc
000000f0: 0400 0080 0400 0000 0400 0000 0000 0000
00000100: 0400 0000 0400 0000 0400 0080 0400 0080
00000110: 0400 0000 0000 0000 0400 0000 0000 0000
00000120: 0400 0080 0400 0080 0400 0000 0400 0000
00000130: 0400 0080 0400 0080 2501 21bd 0000 0000
00000140: 0400 0000 0400 0080 0400 0000 0000 0000
00000150: 0400 0000 0400 0080 0400 0000 0400 0080
00000160: 0400 0000 0400 0080 0400 0000 a555 5bbd
00000170: 0400 0000 0400 0000 0400 0000 0000 0000
00000180: 0400 0000 0400 0000 0400 0000 0400 0000
00000190: 0400 0000 0000 0000 0400 0080 0000 0000
000001a0: 0400 0000 0400 0080 0400 0000 0400 0080
000001b0: 0400 0000 0400 0000 4ab5 763c 0000 0000
000001c0: 0400 0000 0400 0000 0400 0000 0000 0000
000001d0: 0400 0000 0400 0000 0400 0080 0400 0000
000001e0: 0400 0080 0400 0000 0400 0000 773a e83d
000001f0: 0400 0080 0400 0000 0400 0000 0000 0000
00000200: 0400 0080 0400 0000 0400 0000 0400 0000
00000210: 0400 0000 0000 0000 0400 0000 0000 0000
00000220: 0400 0080 0400 0080 0400 0000 0400 0000
00000230: 0400 0000 0400 0080 00f6 843d 0000 0000
00000240: 0400 0080 0400 0000 0400 0000 0000 0000
00000250: 0400 0000 0400 0000 0400 0000 0400 0000
00000260: 0400 0000 0400 0000 0400 0080 b048 d43c
00000270: 0400 0000 0400 0080 0400 0000 0000 0000
00000280: 0400 0080 0400 0000 0400 0000 0400 0080
00000290: 0400 0000 0000 0000 0400 0080 0000 0000
000002a0: 0400 0080 0400 0000 0400 0000 0400 0080
000002b0: 0400 0080 0400 0000 27b5 963d 0000 0000
000002c0: 0400 0000 0400 0080 0400 0080 0000 0000
000002d0: 0400 0000 0400 0080 0400 0080 0400 0080
000002e0: 0400 0000 0400 0000 0400 0080 b977 813d
000002f0: 0400 0080 0400 0080 0400 0080 0000 0000
00000300: 0400 0000 0400 0000 0400 0000 0400 0080
00000310: 0400 0000 0000 0000 0400 0080 0000 0000
00000320: 0400 0000 0400 0080 0400 0000 0400 0080
00000330: 0400 0000 0400 0000 0a19 8d3d 0000 0000
00000340: 0400 0000 0400 0080 0400 0000 0000 0000
00000350: 0400 0000 0400 0000 0400 0080 0400 0000
00000360: 0400 0000 0400 0000 0400 0000 12ca 5f3d
00000370: 0400 0080 0400 0000 0400 0000 0000 0000
00000380: 0400 0080 0400 0080 0400 0080 0400 0000
00000390: 0400 0080 0000 0000 0400 0080 0000 0000
000003a0: 0400 0000 0400 0000 0400 0080 0400 0000
000003b0: 0400 0080 0400 0000 9096 53bb 0000 0000
000003c0: 0400 0000 0400 0000 0400 0080 0000 0000
000003d0: 0400 0000 0400 0000 0400 0080 0400 0080
000003e0: 0400 0000 0400 0080 0400 0000 027e a5bd
000003f0: 0400 0080 0400 0080 0400 0000 0000 0000
6e-45 6e-45 6e-45 6e-45 6e-45 0.0 6e-45 0.0
6e-45 6e-45 6e-45 6e-45 -6e-45 -6e-45 0.0035477276 0.0
6e-45 -6e-45 6e-45 0.0 6e-45 6e-45 6e-45 6e-45
6e-45 -6e-45 -6e-45 -0.064329 6e-45 6e-45 6e-45 0.0
6e-45 6e-45 6e-45 -6e-45 6e-45 0.0 -6e-45 0.0
6e-45 6e-45 6e-45 -6e-45 6e-45 6e-45 -0.03302014 0.0
6e-45 6e-45 6e-45 0.0 6e-45 -6e-45 -6e-45 -6e-45
6e-45 6e-45 -6e-45 -0.020114852 -6e-45 6e-45 6e-45 0.0
6e-45 6e-45 -6e-45 -6e-45 6e-45 0.0 6e-45 0.0
-6e-45 -6e-45 6e-45 6e-45 -6e-45 -6e-45 -0.039307732 0.0
6e-45 -6e-45 6e-45 0.0 6e-45 -6e-45 6e-45 -6e-45
6e-45 -6e-45 6e-45 -0.053548474 6e-45 6e-45 6e-45 0.0
6e-45 6e-45 6e-45 6e-45 6e-45 0.0 -6e-45 0.0
6e-45 -6e-45 6e-45 -6e-45 6e-45 6e-45 0.015057871 0.0
6e-45 6e-45 6e-45 0.0 6e-45 6e-45 -6e-45 6e-45
-6e-45 6e-45 6e-45 0.11339276 -6e-45 6e-45 6e-45 0.0
-6e-45 6e-45 6e-45 6e-45 6e-45 0.0 6e-45 0.0
-6e-45 -6e-45 6e-45 6e-45 6e-45 -6e-45 0.06492233 0.0
-6e-45 6e-45 6e-45 0.0 6e-45 6e-45 6e-45 6e-45
6e-45 6e-45 -6e-45 0.025913566 6e-45 -6e-45 6e-45 0.0
-6e-45 6e-45 6e-45 -6e-45 6e-45 0.0 -6e-45 0.0
-6e-45 6e-45 6e-45 -6e-45 -6e-45 6e-45 0.07358771 0.0
6e-45 -6e-45 -6e-45 0.0 6e-45 -6e-45 -6e-45 -6e-45
6e-45 6e-45 -6e-45 0.063216634 -6e-45 -6e-45 -6e-45 0.0
6e-45 6e-45 6e-45 -6e-45 6e-45 0.0 -6e-45 0.0
6e-45 -6e-45 6e-45 -6e-45 6e-45 6e-45 0.068895414 0.0
6e-45 -6e-45 6e-45 0.0 6e-45 6e-45 -6e-45 6e-45
6e-45 6e-45 6e-45 0.05463607 -6e-45 6e-45 6e-45 0.0
-6e-45 -6e-45 -6e-45 6e-45 -6e-45 0.0 -6e-45 0.0
6e-45 6e-45 -6e-45 6e-45 -6e-45 6e-45 -0.0032285787 0.0
6e-45 6e-45 -6e-45 0.0 6e-45 6e-45 -6e-45 -6e-45
6e-45 -6e-45 6e-45 -0.08080675 -6e-45 -6e-45 6e-45 0.0

exp_avg_sq f4 [10, 32]
00000000: f712 0724 e082 9624 e4f7 6f23 baaa e425
00000010: c208 911d 0000 0000 bf49 db29 0000 0000
00000020: a5b0 3527 23f9 af27 2b00 1c20 26af a92a
00000030: bae3 2e25 97e7 3625 a162 0d3c 0000 0000
00000040: 5da9 fd22 1721 452a 735b 1820 0000 0000
00000050: fc24 bc22 50af 5c27 2d64 2c2a 2cc4 e728
00000060: 87ec 9521 910c 9d27 ab6d b225 cd71 753c
00000070: 14cb 132a 5c7c e624 b0d5 7220 0000 0000
00000080: ee5b 0524 1e16 3124 6c22 ef25 42fb 5d24
00000090: 1e20 be1d 0000 0000 35f4 a42a 0000 0000
000000a0: ce0d 6027 377a c327 32eb bc1f 87d5 482b
000000b0: 4508 4c26 a3e0 0b24 7127 1d3e 0000 0000
000000c0: c00d 9722 637f dc2a a1c3 4324 0000 0000
000000d0: bc3a 0c22 ce8b b625 daf5 262b 306d 0f2a
000000e0: 24cd e520 1bae cf25 b607 b422 6054 b93e
000000f0: 9532 2b2b f34d 9323 ee27 a41f 0000 0000
00000100: 316e 9322 4548 2624 745c e326 8fb2 4e26
00000110: a796 ba1d 0000 0000 f27d b629 0000 0000
00000120: c669 b427 4b25 7425 8f35 d31f 6b67 c12a
00000130: caa7 1925 55b5 8224 b5a8 c53d 0000 0000
00000140: e7d2 9622 8fbf 3d2a 2cc2 2924 0000 0000
00000150: 0334 7a22 b4ae be28 a598 992a 6c16 0d29
00000160: ab77 4b21 404b 1725 bc87 3324 3e7c c73e
00000170: 712e 0e2a 70c9 8c24 db2d fa1f 0000 0000
00000180: 14ff 0c26 3f9a 0424 55f7 ba25 f6f7 3025
00000190: c090 221d 0000 0000 7d07 cb29 0000 0000
000001a0: 0b3b 9627 dac1 8326 0297 991f 10ef 722b
000001b0: f25e 0e27 f2ec 8f24 ec17 d83c 0000 0000
000001c0: ec9b 5222 cda6 8d29 bd5c 1e24 0000 0000
000001d0: e596 3422 0efc 2e27 9313 ec2a 3a66 ce28
000001e0: 6173 cc24 5952 a925 ad00 f823 c8d8 583e
000001f0: bec7 d729 ddb3 5b24 bf4a 7e1f 0000 0000
00000200: 81aa d326 1db0 8724 464d ea23 5f16 c224
00000210: 200a 7f1d 0000 0000 d16c 242a 0000 0000
00000220: 5ab1 8527 e00c 0e27 7f9a 0b20 39ef 192b
00000230: 4b2d eb23 340d 1a27 ce2a 593e 0000 0000
00000240: 9290 f924 8ea1 2e29 4913 2521 0000 0000
00000250: ca75 1b23 2929 b926 dbe8 f42a 2d17 4429
00000260: b62b f221 1d55 7a25 d105 1c25 3773 023d
00000270: 3da5 7a2a f7c9 0223 6e98 ba20 0000 0000
00000280: 473f e425 a02e 2824 299a ac24 9760 9427
00000290: f711 551d 0000 0000 aa55 022a 0000 0000
000002a0: b084 ea27 6639 8027 15d7 ba1f 7e95 e42a
000002b0: 6500 fb25 333c a824 1ad1 e53d 0000 0000
000002c0: 2085 8e22 dd67 f629 69f0 7620 0000 0000
000002d0: 8114 7e22 6e23 d726 ed3c e52a da72 8529
000002e0: 58da 8921 eaa8 3225 b08f 9a24 e075 0e3e
000002f0: fbe1 a82a b356 0123 3d04 8623 0000 0000
00000300: 6fe8 5626 2781 5924 2f6a 1626 77ff 4125
00000310: bd32 6f1d 0000 0000 c947 2d2a 0000 0000
00000320: 89b8 f027 330c d728 ee82 f31f 7148 b22b
00000330: fc5d 6027 3162 d324 43c2 503e 0000 0000
00000340: 930a ab22 2504 cc29 505c 7b24 0000 0000
00000350: 926b 6322 d030 8e27 ec59 0f2b fcf7 2329
00000360: 5332 1a21 e7f1 0526 ea09 3124 4808 1c3e
00000370: 64da bd2a 77b2 aa24 6501 f11f 0000 0000
00000380: 4a69 db25 501c 1b26 2b0e 2426 24bc 9025
00000390: daed b020 0000 0000 9996 302a 0000 0000
000003a0: 80ab 2b26 b461 6c26 f86f 1c23 3791 582b
000003b0: d204 5626 87d3 fa24 4ac3 4f3d 0000 0000
000003c0: a204 be22 507b b928 1d62 e125 0000 0000
000003d0: 1bb0 9122 bfc8 8b26 5b70 e12a 696d 9e29
000003e0: 20d5 2c21 3f37 b426 236c 3a24 b10d 0e3d
000003f0: 6aa5 702a e72a 2126 405d ee1f 0000 0000
2.9289523e-17 6.527384e-17 1.3008709e-17 3.9667384e-16 3.8390236e-21 0.0 9.7383466e-14 0.0
2.5214555e-15 4.884237e-15 1.321377e-19 3.0141964e-13 1.5169251e-16 1.5864449e-16 0.008629472 0.0
6.8755108e-18 1.7508595e-13 1.2905159e-19 0.0 5.099666e-18 3.062617e-15 1.5311424e-13 2.5731228e-14
1.0159241e-18 4.358988e-15 3.0952392e-16 0.0149807455 1.312668e-13 9.995727e-17 2.05689e-19 0.0
2.8917645e-17 3.839949e-17 4.1483216e-16 4.813456e-17 5.032579e-21 0.0 2.9301705e-13 0.0
3.1093728e-15 5.425588e-15 8.0010195e-20 7.13506e-13 7.0787925e-16 3.0331095e-17 0.15347077 0.0
4.094319e-18 3.9168243e-13 4.244959e-17 0.0 1.9004632e-18 3.1666703e-16 5.9316235e-13 1.2738833e-13
3.892986e-19 3.6026754e-16 4.879726e-18 0.36197186 6.08216e-13 1.5970785e-17 6.952276e-20 0.0
3.99611e-18 3.6056727e-17 1.5776349e-15 7.17126e-16 4.938956e-21 0.0 8.1042716e-14 0.0
5.0074716e-15 2.1176262e-16 8.945058e-20 3.4355448e-13 1.3327484e-16 5.66857e-17 0.09651319 0.0
4.0880883e-18 1.6853032e-13 3.6810503e-17 0.0 3.3908853e-18 2.1170003e-14 2.7284178e-13 3.1327737e-14
6.8937455e-19 1.3122658e-16 3.892941e-17 0.38961977 1.2628246e-13 6.105657e-17 1.0595498e-19 0.0
4.8917953e-16 2.875359e-17 3.2433455e-16 1.5349579e-16 2.1515355e-21 0.0 9.01631e-14 0.0
4.169738e-15 9.142495e-16 6.504784e-20 8.6307437e-13 1.9757929e-15 6.2417765e-17 0.026378594 0.0
2.8542851e-18 6.290593e-14 3.433934e-17 0.0 2.4474432e-18 2.428399e-15 4.1935604e-13 2.2914928e-14
8.866636e-17 2.9372628e-16 2.68885e-17 0.21176445 9.582568e-14 4.7640405e-17 5.384842e-20 0.0
1.4687281e-15 5.8845265e-17 2.5403057e-17 8.417199e-17 3.3754203e-21 0.0 1.460388e-13 0.0
3.71072e-15 1.9713438e-15 1.1824876e-19 5.468851e-13 2.5497933e-17 2.137895e-15 0.21207735 0.0
1.0823145e-16 3.8775888e-14 5.59297e-19 0.0 8.42751e-18 1.284811e-15 4.3504683e-13 4.3540844e-14
1.6410128e-18 2.1712881e-16 1.3532814e-16 0.03184816 2.2261789e-13 7.090082e-18 3.1610495e-19 0.0
3.9594574e-16 3.6468686e-17 7.485427e-17 4.1182975e-15 2.8199603e-21 0.0 1.157604e-13 0.0
6.5091907e-15 3.558937e-15 7.912989e-20 4.0604667e-13 4.3541827e-16 7.296037e-17 0.112215236 0.0
3.863013e-18 1.0942612e-13 2.0916556e-19 0.0 3.4434274e-18 1.4928225e-15 4.0720847e-13 5.92631e-14
9.341276e-19 1.5496269e-16 6.703027e-17 0.13912153 2.99996e-13 7.011463e-18 1.4530104e-17 0.0
7.456117e-16 4.716377e-17 5.218561e-16 1.6826636e-16 3.1657618e-21 0.0 1.5390392e-13 0.0
6.6813455e-15 2.3875086e-14 1.0313111e-19 1.2667767e-12 3.1137194e-15 9.1673006e-17 0.20386605 0.0
4.636084e-18 9.060139e-14 5.450514e-17 0.0 3.0821184e-18 3.946584e-15 5.0928597e-13 3.6408363e-14
5.2243833e-19 4.6471483e-16 3.8389154e-17 0.15237534 3.3724683e-13 7.402808e-17 1.0206978e-19 0.0
3.806179e-16 5.38148e-16 5.691813e-16 2.5107507e-16 2.9972957e-19 0.0 1.5684189e-13 0.0
5.955997e-16 8.201136e-16 8.480487e-18 7.694014e-13 7.42527e-16 1.0877856e-16 0.05072335 0.0
5.150451e-18 2.0592604e-14 3.9097762e-16 0.0 3.9488788e-18 9.699475e-16 4.004599e-13 7.035589e-14
5.8557935e-19 1.2504984e-15 4.0423916e-17 0.034681026 2.1373672e-13 5.591624e-16 1.0095119e-19 0.0

exp_avg f4 [10]
00000000: 1ab7 d4bc 3f3c 973b 3002 54bb 28b7 163c
00000010: bfa2 0e3c 1493 343b 5854 3e3c 2e5f bb3a
00000020: a22b 40bb b5c6 cabb
-0.025966216 0.004615336 -0.0032349937 0.009198941 0.008705794 0.0027553486 0.011616789 0.0014295334
-0.0029322882 -0.0061882385

exp_avg_sq f4 [10]
00000000: 3614 623b 6f73 193b 46a1 663b 1337 693b
00000010: de75 283b 2a7a 933b 6ae0 0f3b 3c07 893b
00000020: 80cc 9b3b 2362 573b
0.003449691 0.002341475 0.0035191341 0.0035585805 0.002570502 0.004500647 0.002195383 0.0041817706
0.004754603 0.003286489
