Assignment 1 Submission Code/code/simple-2D-classifier/best-mlp.pth (torch, 5057 bytes, 9 tensors)

layers.0.weight f4 [32, 2]
0	0x3d61a37a	0.055087544
1	0x3da01522	0.07816531
2	0x3d346081	0.044037346
3	0x3da8c83a	0.08241315
4	0xbe675bb0	-0.2259357
5	0x3e4066e2	0.18789247
6	0x3ee9013f	0.45508763
7	0xbedc74b2	-0.4305778
8	0xbcb81f08	-0.022475734
9	0x3d833645	0.064068355
10	0xbf37b3e8	-0.7175889
11	0xbe829904	-0.25507367
12	0x3e235330	0.15949702
13	0x3f17ab19	0.5924545
14	0xbcfbe544	-0.03074897
15	0x3f13b1aa	0.5769297
16	0x3e8366e0	0.25664425
17	0x3ebcc756	0.3687083
18	0xbf34e067	-0.7065491
19	0x3e3a4e7e	0.18194005
20	0xbe5aa265	-0.21351011
21	0xbe92289b	-0.28546605
22	0x3eaee904	0.34162152
23	0x3f475562	0.7786466
24	0x3e32d413	0.17463712
25	0xbf1858e6	-0.5951065
26	0x3f395cc8	0.724072
27	0xbe981741	-0.2970524
28	0x3d975e06	0.073909804
29	0xbf151e31	-0.58249193
30	0xbeeee459	-0.4665859
31	0x3e9d295b	0.30695614
32	0x3f148a4c	0.58023524
33	0x3d283cd6	0.041073643
34	0xbe4f54ee	-0.20247242
35	0x3e88b196	0.26697987
36	0x3ef24860	0.47320843
37	0x3cb55765	0.0221364
38	0xbf464d42	-0.77461636
39	0x3f2cd1f6	0.67507875
40	0x3f148437	0.58014244
41	0x3e47db65	0.19517286
42	0xbeab2109	-0.3342364
43	0x3d8a0d1e	0.06740783
44	0x3ed2994b	0.41132578
45	0xbf101bc6	-0.5629238
46	0x3de101ad	0.10986648
47	0x3f0a0aa1	0.5392247
48	0x3e14dfca	0.14538494
49	0xbf37a1f2	-0.71731484
50	0xbe5c187c	-0.21493715
51	0x3e896735	0.26836553
52	0xbd9d0af3	-0.07668104
53	0xbf0dd4f9	-0.55403095
54	0xbe9c97cd	-0.30584565
55	0x3dea09f8	0.11427683
56	0x3b306fa8	0.002692202
57	0xbf23331e	-0.63749874
58	0x3ef85164	0.48499596
59	0x3ed2b158	0.41150928
60	0x3ecf8f9d	0.40539256
61	0xbf48b9ef	-0.7840871
62	0x3e47234d	0.1944706
63	0x3f3df558	0.7420249

layers.0.bias f4 [32]
0	0x3fccfeeb	1.6015295
1	0x3fd3afe0	1.6538048
2	0x3e0f1fc1	0.13976957
3	0x3ea28715	0.31743684
4	0x3fa82394	1.3135858
5	0xbf2fc499	-0.6865936
6	0xbe831b0a	-0.25606567
7	0x3f247adf	0.64249986
8	0x3dc87930	0.0978874
9	0xbf1ef098	-0.62085867
10	0xbf63e5ba	-0.8902241
11	0xbf7a4065	-0.9775451
12	0x3f13c952	0.57729065
13	0xbf0ca096	-0.54932535
14	0x3f1c965f	0.6116695
15	0xbef95bda	-0.4870289
16	0xbde4c356	-0.1117007
17	0xbf2f3bd8	-0.6845069
18	0x3e5855d2	0.21126488
19	0x3dedfec5	0.11620859
20	0xbf3e62d3	-0.74369544
21	0xbe8f1573	-0.27946052
22	0xbf43615f	-0.7632045
23	0xbeac8a0f	-0.3369908
24	0x3d0942df	0.03351104
25	0xbf13e182	-0.5776597
26	0xbc65eace	-0.014033033
27	0x3f1bb6a4	0.6082556
28	0xbd0bf496	-0.034168802
29	0xbf322163	-0.69582194
30	0xbf89e1bc	-1.0772014
31	0xbf72879a	-0.9473816

layers.2.weight f4 [1, 32]
0	0xbf1a9b38	-0.60393095
1	0xbf2aac61	-0.6666928
2	0xbd3d2d21	-0.046185616
3	0xbdf9197f	-0.12163066
4	0xbec62a5b	-0.3870419
5	0x3de5cbe7	0.11220532
6	0x3da44a21	0.080219515
7	0xbe1a4cb7	-0.15068327
8	0xbd3e77b9	-0.046500895
9	0x3e26b3a3	0.16279463
10	0x3f3570c3	0.70875186
11	0x3e788542	0.24269584
12	0xbe12f4b4	-0.1435116
13	0x3e4f330d	0.20234318
14	0xbda7f27a	-0.082005456
15	0x3d0db54d	0.03459673
16	0x3e2b584f	0.16732906
17	0x3f0c2951	0.54750544
18	0xbdae005b	-0.084961616
19	0x3e183f72	0.14867952
20	0x3eb3c09a	0.3510788
21	0x3e24861b	0.16066782
22	0x3dd13a18	0.10216159
23	0x3d6a170a	0.057150878
24	0x3e0922c2	0.13392165
25	0x3e0c873f	0.13723467
26	0xbcc13036	-0.02358256
27	0xbdadf529	-0.08494026
28	0x3dcb08f4	0.09913817
29	0x3e6d345e	0.23164508
30	0x3e9f592d	0.31122723
31	0x3e56557e	0.2093105

exp_avg f4 [32, 2]
0	0xbcfbe620	-0.03074938
1	0xbd06f922	-0.032952435
2	0xbd0b0ac2	-0.033945806
3	0xbd151ec2	-0.036406286
4	0xbb376a9c	-0.0027987128
5	0xbb7c108a	-0.0038462006
6	0x3afa651a	0.0019103617
7	0x3b8fb2cb	0.0043853275
8	0xbca18f36	-0.019721609
9	0xbcac0486	-0.02099825
10	0x3ba26a8b	0.0049565486
11	0x3bbe10b1	0.0058003296
12	0xba261da0	-0.0006336812
13	0x3b40d2e0	0.0029422566
14	0x3b0c83f2	0.002144095
15	0xbba291f4	-0.0049612466
16	0x397e578c	0.00024255941
17	0xbafee880	-0.0019447953
18	0x3bef4cd6	0.0073028607
19	0x3c0b553a	0.008504206
20	0x3c872abf	0.016499875
21	0x3d68dbdc	0.0568503
22	0xbbacb066	-0.005270052
23	0x3c235637	0.009969286
24	0xbc04398e	-0.008070363
25	0xbb544edc	-0.0032395637
26	0xb8d48568	-0.000101337966
27	0xbb7bf1dc	-0.003844372
28	0xbb7db813	-0.0038714453
29	0xbac6cb9e	-0.0015166884
30	0x3b10711f	0.0022040082
31	0x3b4e179e	0.0031447182
32	0x3ac5737c	0.0015064324
33	0xbab3a448	-0.0013705576
34	0xbbed31d3	-0.0072386055
35	0x3b21ff6e	0.0024718898
36	0xba18466b	-0.0005808833
37	0xba9639da	-0.0011461333
38	0x3c1b8933	0.00949316
39	0x3c595cd4	0.013266761
40	0xbbb705cc	-0.005585408
41	0x3c2f143a	0.010685975
42	0x3be55d38	0.006999638
43	0x3bd5c2f4	0.0065234844
44	0xba73017c	-0.00092699355
45	0xbb167d0a	-0.0022962713
46	0xba15e7de	-0.000571845
47	0x3b0b4d61	0.0021255838
48	0x3bdcc576	0.0067374064
49	0x3b19f6c5	0.0023493033
50	0xbb28baf7	-0.0025746205
51	0x3a8277f2	0.0009953959
52	0xbaab4f31	-0.0013069866
53	0xb9fdd41e	-0.0004841396
54	0xbbc4f356	-0.006010453
55	0xbbd03bd6	-0.0063547892
56	0x3bbdd559	0.0057932553
57	0x3aefb160	0.0018287115
58	0xbb46ae06	-0.0030316128
59	0x3bfc7d74	0.007705385
60	0x3bb79e8c	0.005603617
61	0xba0d09b0	-0.00053801667
62	0xbb51fbe5	-0.003204101
63	0x3c0219ae	0.007940693

exp_avg_sq f4 [32, 2]
0	0x3cc2a608	0.02376081
1	0x3ccb707e	0.024833914
2	0x3cfe05b3	0.031008577
3	0x3d067362	0.03282488
4	0x3a579090	0.00082231406
5	0x3a3ddd3c	0.00072427443
6	0x3af584bf	0.0018731578
7	0x3b0298e8	0.0019927565
8	0x3bd79e3c	0.0065801423
9	0x3bd3a148	0.006458435
10	0x3997b504	0.00028935832
11	0x397fa721	0.00024380955
12	0x3993332b	0.00028076148
13	0x3996c158	0.00028754282
14	0x3b3af7d4	0.0028529065
15	0x3b27a386	0.0025579645
16	0x3a1ede21	0.00060603215
17	0x3a3247f9	0.0006800886
18	0x3a8fe774	0.0010979013
19	0x3a85f775	0.0010220843
20	0x3c6051f0	0.01369141
21	0x3c9b34d4	0.018946089
22	0x3b2007d6	0.0024418733
23	0x3b407939	0.002936913
24	0x3afe233c	0.0019389163
25	0x3b071c12	0.0020616096
26	0x3b0d61e6	0.0021573245
27	0x3b07ae5b	0.002070329
28	0x3a03f966	0.00050344167
29	0x3a09ffe2	0.0005264265
30	0x3a35a802	0.0006929637
31	0x3a0ecde0	0.0005447548
32	0x3af93283	0.0019012246
33	0x3b02d72c	0.0019964678
34	0x3c3de99a	0.0115913395
35	0x3c58ddb5	0.013236453
36	0x3ac66df2	0.0015138967
37	0x3acec78d	0.0015776024
38	0x3b0d467b	0.0021556902
39	0x3b09dd37	0.0021036395
40	0x3bcf3c69	0.00632434
41	0x3ba5e3ec	0.005062571
42	0x3aba6244	0.0014219959
43	0x3ab620c7	0.0013895266
44	0x393ccc58	0.00018005201
45	0x393c2b59	0.00017945225
46	0x388ad798	6.62051e-05
47	0x389201e9	6.962178e-05
48	0x3ad814db	0.0016485708
49	0x3adfb838	0.0017068451
50	0x39ca4bd9	0.00038584953
51	0x39c9ab2f	0.0003846525
52	0x39d410a5	0.00040448192
53	0x39f9ee74	0.00047670642
54	0x3a0b4b8b	0.0005313686
55	0x3a1163b7	0.00055461697
56	0x3a67acb9	0.00088376884
57	0x3a68467e	0.0008860602
58	0x3b1b7c43	0.0023725189
59	0x3b20ec2e	0.0024554837
60	0x3b827c34	0.0039820913
61	0x3ba154a1	0.0049234186
62	0x3aba3db0	0.0014209058
63	0x3af09ed2	0.0018357879

exp_avg f4 [32]
0	0xbd02dbbc	-0.031947836
1	0xbd108f4c	-0.03529291
2	0xbaabec00	-0.0013116598
3	0xbb704680	-0.0036663115
4	0xbca6dfc7	-0.020370377
5	0x3ab4b218	0.0013785986
6	0x3b0a9b6d	0.002114977
7	0xbbad97e3	-0.0052976473
8	0xbaca2e5d	-0.0015425194
9	0x3b395c5a	0.0028283806
10	0x3ab3d63a	0.0013720461
11	0x3bcc83c1	0.006241292
12	0xbb74c549	-0.0037349036
13	0x3bb09dc2	0.0053899
14	0xbb00fbef	-0.0019681414
15	0x3a2a6c72	0.0006501145
16	0x3ba0e9ab	0.004910668
17	0x3c24e60f	0.010064616
18	0xbb3e17ed	-0.002900596
19	0x3b7d46b9	0.003864689
20	0x3bfb205d	0.00766377
21	0x3b26bcc6	0.0025442108
22	0x3b0f0a58	0.0021826234
23	0x3ac2e2c5	0.0014868608
24	0x3b45f3c2	0.0030205105
25	0x3b41b792	0.002955888
26	0xba292126	-0.0006451778
27	0xbb593654	-0.0033143954
28	0x3b0a0771	0.0021061564
29	0x3bd17c02	0.0063929567
30	0x3bce86ac	0.006302675
31	0x3bad2c17	0.005284797

exp_avg_sq f4 [32]
0	0x3ad30068	0.0016098144
1	0x3b09ed92	0.0021046144
2	0x38167259	3.586928e-05
3	0x38fb10db	0.00011971752
4	0x39dd8298	0.00042249705
5	0x3767291b	1.3778244e-05
6	0x3784e1a6	1.5840702e-05
7	0x3912e33f	0.00014008301
8	0x38147d9c	3.5402933e-05
9	0x386c1013	5.6281755e-05
10	0x3a490012	0.0007667552
11	0x391514e2	0.00014217527
12	0x390d4bf6	0.00013475106
13	0x38f916da	0.00011877502
14	0x3810f560	3.45608e-05
15	0x37df647f	2.6630469e-05
16	0x38eedb5a	0.00011389582
17	0x3a0d2a92	0.00053850666
18	0x38bbf5ed	8.962662e-05
19	0x38f6bbd4	0.0001176518
20	0x399d791b	0.00030035604
21	0x38a0ba1d	7.664061e-05
22	0x3721b0f8	9.637552e-06
23	0x367aadb1	3.7354005e-06
24	0x38f37a50	0.000116099254
25	0x3791f510	1.7399463e-05
26	0x37e23457	2.6965672e-05
27	0x37f0c57b	2.8702189e-05
28	0x387b80c8	5.9963e-05
29	0x3907e8ef	0.00012961378
30	0x398372db	0.0002507184
31	0x38b3f100	8.580275e-05

exp_avg f4 [1, 32]
0	0x3dbc429a	0.09192391
1	0x3dc1573f	0.09440469
2	0x3bc3c7ad	0.005974731
3	0x3c932f2a	0.017966826
4	0x3d92d588	0.07169634
5	0xbd5b066d	-0.053472925
6	0x3c60cad6	0.013720235
7	0x3d2d0353	0.0422395
8	0x3c90e5bd	0.017687673
9	0xbd0697d1	-0.032859627
10	0xbcf1957c	-0.029490225
11	0xb9d4af80	-0.0004056655
12	0x3c38de29	0.011283436
13	0xbc1ad1a4	-0.009449396
14	0x3bef0089	0.007293765
15	0xbc34d4f1	-0.011037097
16	0x3ae3036d	0.0017319747
17	0xbc0cf472	-0.008603202
18	0x3c30bf2e	0.010787768
19	0x3c6482dd	0.013947216
20	0xbc9f2e71	-0.019431325
21	0xbc841b5c	-0.016126327
22	0xbbfcadb4	-0.0077111367
23	0x3c283bb6	0.010268142
24	0xbb947aec	-0.004531255
25	0xbbcd3dc8	-0.0062634684
26	0xbc7924c7	-0.015206522
27	0x3c2e405b	0.010635461
28	0xbc4b034e	-0.012390925
29	0xbc3ff43e	-0.011715947
30	0xbc59d840	-0.013296187
31	0x3ab833b4	0.0014053495

exp_avg_sq f4 [1, 32]
0	0x3cc292e1	0.023751678
1	0x3cccbcea	0.024992425
2	0x3c5fbd5f	0.013655989
3	0x3d4ad52f	0.049519714
4	0x3c72a09d	0.014808801
5	0x3d3a1ca1	0.04543746
6	0x3d1c6215	0.038179476
7	0x3d6e1a6e	0.058130674
8	0x3cb447b8	0.022006854
9	0x3d4ea578	0.050450772
10	0x3b27403b	0.0025520462
11	0x3d54fe90	0.052000582
12	0x3d6bab16	0.057536207
13	0x3d5425a4	0.05179371
14	0x3d5677a7	0.052360203
15	0x3d0643cb	0.032779496
16	0x3d0869b2	0.033303924
17	0x3b78a74b	0.0037941511
18	0x3ce1eabb	0.027577749
19	0x3e18307d	0.14862247
20	0x3cba1ec6	0.022719752
21	0x3c3411cd	0.010990572
22	0x3d14e471	0.03635067
23	0x3cf0ef80	0.029411077
24	0x3d831eb4	0.064023405
25	0x3bf73226	0.00754382
26	0x3d042345	0.0322602
27	0x3cc8bf3d	0.024505252
28	0x3d3fdbbd	0.046840418
29	0x3cea91eb	0.028634032
30	0x3d5d2ee1	0.053999785
31	0x3d277617	0.040884104
